<?xml version="1.0" ?>
<net name="horizontal-text-detection-0001" version="10">
	<layers>
		<layer id="0" name="image" type="Parameter" version="opset1">
			<data element_type="f16" shape="1,3,704,704"/>
			<output>
				<port id="0" precision="FP16">
					<dim>1</dim>
					<dim>3</dim>
					<dim>704</dim>
					<dim>704</dim>
				</port>
			</output>
		</layer>
		<layer id="1" name="image/reverse_input_channels/Concat59237_const" type="Const" version="opset1">
			<data element_type="f16" offset="0" shape="32,3,3,3" size="1728"/>
			<output>
				<port id="1" precision="FP16">
					<dim>32</dim>
					<dim>3</dim>
					<dim>3</dim>
					<dim>3</dim>
				</port>
			</output>
		</layer>
		<layer id="2" name="364" type="Convolution" version="opset1">
			<data dilations="1,1" output_padding="0,0" pads_begin="1,1" pads_end="1,1" strides="2,2"/>
			<input>
				<port id="0">
					<dim>1</dim>
					<dim>3</dim>
					<dim>704</dim>
					<dim>704</dim>
				</port>
				<port id="1">
					<dim>32</dim>
					<dim>3</dim>
					<dim>3</dim>
					<dim>3</dim>
				</port>
			</input>
			<output>
				<port id="2" precision="FP16">
					<dim>1</dim>
					<dim>32</dim>
					<dim>352</dim>
					<dim>352</dim>
				</port>
			</output>
		</layer>
		<layer id="3" name="data_add_30499/copy_const" type="Const" version="opset1">
			<data element_type="f16" offset="1728" shape="1,32,1,1" size="64"/>
			<output>
				<port id="1" precision="FP16">
					<dim>1</dim>
					<dim>32</dim>
					<dim>1</dim>
					<dim>1</dim>
				</port>
			</output>
		</layer>
		<layer id="4" name="365/variance/Fused_Add_" type="Add" version="opset1">
			<input>
				<port id="0">
					<dim>1</dim>
					<dim>32</dim>
					<dim>352</dim>
					<dim>352</dim>
				</port>
				<port id="1">
					<dim>1</dim>
					<dim>32</dim>
					<dim>1</dim>
					<dim>1</dim>
				</port>
			</input>
			<output>
				<port id="2" precision="FP16">
					<dim>1</dim>
					<dim>32</dim>
					<dim>352</dim>
					<dim>352</dim>
				</port>
			</output>
		</layer>
		<layer id="5" name="366" type="Clamp" version="opset1">
			<data max="6.0" min="0.0"/>
			<input>
				<port id="0">
					<dim>1</dim>
					<dim>32</dim>
					<dim>352</dim>
					<dim>352</dim>
				</port>
			</input>
			<output>
				<port id="1" precision="FP16">
					<dim>1</dim>
					<dim>32</dim>
					<dim>352</dim>
					<dim>352</dim>
				</port>
			</output>
		</layer>
		<layer id="6" name="368/mean/Fused_Mul_3293532937_const" type="Const" version="opset1">
			<data element_type="f16" offset="1792" shape="32,32,1,1" size="2048"/>
			<output>
				<port id="1" precision="FP16">
					<dim>32</dim>
					<dim>32</dim>
					<dim>1</dim>
					<dim>1</dim>
				</port>
			</output>
		</layer>
		<layer id="7" name="367" type="Convolution" version="opset1">
			<data dilations="1,1" output_padding="0,0" pads_begin="0,0" pads_end="0,0" strides="1,1"/>
			<input>
				<port id="0">
					<dim>1</dim>
					<dim>32</dim>
					<dim>352</dim>
					<dim>352</dim>
				</port>
				<port id="1">
					<dim>32</dim>
					<dim>32</dim>
					<dim>1</dim>
					<dim>1</dim>
				</port>
			</input>
			<output>
				<port id="2" precision="FP16">
					<dim>1</dim>
					<dim>32</dim>
					<dim>352</dim>
					<dim>352</dim>
				</port>
			</output>
		</layer>
		<layer id="8" name="data_add_3050230507/copy_const" type="Const" version="opset1">
			<data element_type="f16" offset="3840" shape="1,32,1,1" size="64"/>
			<output>
				<port id="1" precision="FP16">
					<dim>1</dim>
					<dim>32</dim>
					<dim>1</dim>
					<dim>1</dim>
				</port>
			</output>
		</layer>
		<layer id="9" name="368/variance/Fused_Add_" type="Add" version="opset1">
			<input>
				<port id="0">
					<dim>1</dim>
					<dim>32</dim>
					<dim>352</dim>
					<dim>352</dim>
				</port>
				<port id="1">
					<dim>1</dim>
					<dim>32</dim>
					<dim>1</dim>
					<dim>1</dim>
				</port>
			</input>
			<output>
				<port id="2" precision="FP16">
					<dim>1</dim>
					<dim>32</dim>
					<dim>352</dim>
					<dim>352</dim>
				</port>
			</output>
		</layer>
		<layer id="10" name="369" type="Clamp" version="opset1">
			<data max="6.0" min="0.0"/>
			<input>
				<port id="0">
					<dim>1</dim>
					<dim>32</dim>
					<dim>352</dim>
					<dim>352</dim>
				</port>
			</input>
			<output>
				<port id="1" precision="FP16">
					<dim>1</dim>
					<dim>32</dim>
					<dim>352</dim>
					<dim>352</dim>
				</port>
			</output>
		</layer>
		<layer id="11" name="6212862131_const" type="Const" version="opset1">
			<data element_type="f16" offset="3904" shape="32,1,1,3,3" size="576"/>
			<output>
				<port id="1" precision="FP16">
					<dim>32</dim>
					<dim>1</dim>
					<dim>1</dim>
					<dim>3</dim>
					<dim>3</dim>
				</port>
			</output>
		</layer>
		<layer id="12" name="370" type="GroupConvolution" version="opset1">
			<data dilations="1,1" output_padding="0,0" pads_begin="1,1" pads_end="1,1" strides="1,1"/>
			<input>
				<port id="0">
					<dim>1</dim>
					<dim>32</dim>
					<dim>352</dim>
					<dim>352</dim>
				</port>
				<port id="1">
					<dim>32</dim>
					<dim>1</dim>
					<dim>1</dim>
					<dim>3</dim>
					<dim>3</dim>
				</port>
			</input>
			<output>
				<port id="2" precision="FP16">
					<dim>1</dim>
					<dim>32</dim>
					<dim>352</dim>
					<dim>352</dim>
				</port>
			</output>
		</layer>
		<layer id="13" name="data_add_3051030515/copy_const" type="Const" version="opset1">
			<data element_type="f16" offset="4480" shape="1,32,1,1" size="64"/>
			<output>
				<port id="1" precision="FP16">
					<dim>1</dim>
					<dim>32</dim>
					<dim>1</dim>
					<dim>1</dim>
				</port>
			</output>
		</layer>
		<layer id="14" name="371/variance/Fused_Add_" type="Add" version="opset1">
			<input>
				<port id="0">
					<dim>1</dim>
					<dim>32</dim>
					<dim>352</dim>
					<dim>352</dim>
				</port>
				<port id="1">
					<dim>1</dim>
					<dim>32</dim>
					<dim>1</dim>
					<dim>1</dim>
				</port>
			</input>
			<output>
				<port id="2" precision="FP16">
					<dim>1</dim>
					<dim>32</dim>
					<dim>352</dim>
					<dim>352</dim>
				</port>
			</output>
		</layer>
		<layer id="15" name="372" type="Clamp" version="opset1">
			<data max="6.0" min="0.0"/>
			<input>
				<port id="0">
					<dim>1</dim>
					<dim>32</dim>
					<dim>352</dim>
					<dim>352</dim>
				</port>
			</input>
			<output>
				<port id="1" precision="FP16">
					<dim>1</dim>
					<dim>32</dim>
					<dim>352</dim>
					<dim>352</dim>
				</port>
			</output>
		</layer>
		<layer id="16" name="374/mean/Fused_Mul_3294332945_const" type="Const" version="opset1">
			<data element_type="f16" offset="4544" shape="16,32,1,1" size="1024"/>
			<output>
				<port id="1" precision="FP16">
					<dim>16</dim>
					<dim>32</dim>
					<dim>1</dim>
					<dim>1</dim>
				</port>
			</output>
		</layer>
		<layer id="17" name="373" type="Convolution" version="opset1">
			<data dilations="1,1" output_padding="0,0" pads_begin="0,0" pads_end="0,0" strides="1,1"/>
			<input>
				<port id="0">
					<dim>1</dim>
					<dim>32</dim>
					<dim>352</dim>
					<dim>352</dim>
				</port>
				<port id="1">
					<dim>16</dim>
					<dim>32</dim>
					<dim>1</dim>
					<dim>1</dim>
				</port>
			</input>
			<output>
				<port id="2" precision="FP16">
					<dim>1</dim>
					<dim>16</dim>
					<dim>352</dim>
					<dim>352</dim>
				</port>
			</output>
		</layer>
		<layer id="18" name="data_add_3051830523/copy_const" type="Const" version="opset1">
			<data element_type="f16" offset="5568" shape="1,16,1,1" size="32"/>
			<output>
				<port id="1" precision="FP16">
					<dim>1</dim>
					<dim>16</dim>
					<dim>1</dim>
					<dim>1</dim>
				</port>
			</output>
		</layer>
		<layer id="19" name="374/variance/Fused_Add_" type="Add" version="opset1">
			<input>
				<port id="0">
					<dim>1</dim>
					<dim>16</dim>
					<dim>352</dim>
					<dim>352</dim>
				</port>
				<port id="1">
					<dim>1</dim>
					<dim>16</dim>
					<dim>1</dim>
					<dim>1</dim>
				</port>
			</input>
			<output>
				<port id="2" precision="FP16">
					<dim>1</dim>
					<dim>16</dim>
					<dim>352</dim>
					<dim>352</dim>
				</port>
			</output>
		</layer>
		<layer id="20" name="376/mean/Fused_Mul_3294732949_const" type="Const" version="opset1">
			<data element_type="f16" offset="5600" shape="96,16,1,1" size="3072"/>
			<output>
				<port id="1" precision="FP16">
					<dim>96</dim>
					<dim>16</dim>
					<dim>1</dim>
					<dim>1</dim>
				</port>
			</output>
		</layer>
		<layer id="21" name="375" type="Convolution" version="opset1">
			<data dilations="1,1" output_padding="0,0" pads_begin="0,0" pads_end="0,0" strides="1,1"/>
			<input>
				<port id="0">
					<dim>1</dim>
					<dim>16</dim>
					<dim>352</dim>
					<dim>352</dim>
				</port>
				<port id="1">
					<dim>96</dim>
					<dim>16</dim>
					<dim>1</dim>
					<dim>1</dim>
				</port>
			</input>
			<output>
				<port id="2" precision="FP16">
					<dim>1</dim>
					<dim>96</dim>
					<dim>352</dim>
					<dim>352</dim>
				</port>
			</output>
		</layer>
		<layer id="22" name="data_add_3052630531/copy_const" type="Const" version="opset1">
			<data element_type="f16" offset="8672" shape="1,96,1,1" size="192"/>
			<output>
				<port id="1" precision="FP16">
					<dim>1</dim>
					<dim>96</dim>
					<dim>1</dim>
					<dim>1</dim>
				</port>
			</output>
		</layer>
		<layer id="23" name="376/variance/Fused_Add_" type="Add" version="opset1">
			<input>
				<port id="0">
					<dim>1</dim>
					<dim>96</dim>
					<dim>352</dim>
					<dim>352</dim>
				</port>
				<port id="1">
					<dim>1</dim>
					<dim>96</dim>
					<dim>1</dim>
					<dim>1</dim>
				</port>
			</input>
			<output>
				<port id="2" precision="FP16">
					<dim>1</dim>
					<dim>96</dim>
					<dim>352</dim>
					<dim>352</dim>
				</port>
			</output>
		</layer>
		<layer id="24" name="377" type="Clamp" version="opset1">
			<data max="6.0" min="0.0"/>
			<input>
				<port id="0">
					<dim>1</dim>
					<dim>96</dim>
					<dim>352</dim>
					<dim>352</dim>
				</port>
			</input>
			<output>
				<port id="1" precision="FP16">
					<dim>1</dim>
					<dim>96</dim>
					<dim>352</dim>
					<dim>352</dim>
				</port>
			</output>
		</layer>
		<layer id="25" name="6213262135_const" type="Const" version="opset1">
			<data element_type="f16" offset="8864" shape="96,1,1,3,3" size="1728"/>
			<output>
				<port id="1" precision="FP16">
					<dim>96</dim>
					<dim>1</dim>
					<dim>1</dim>
					<dim>3</dim>
					<dim>3</dim>
				</port>
			</output>
		</layer>
		<layer id="26" name="378" type="GroupConvolution" version="opset1">
			<data dilations="1,1" output_padding="0,0" pads_begin="1,1" pads_end="1,1" strides="2,2"/>
			<input>
				<port id="0">
					<dim>1</dim>
					<dim>96</dim>
					<dim>352</dim>
					<dim>352</dim>
				</port>
				<port id="1">
					<dim>96</dim>
					<dim>1</dim>
					<dim>1</dim>
					<dim>3</dim>
					<dim>3</dim>
				</port>
			</input>
			<output>
				<port id="2" precision="FP16">
					<dim>1</dim>
					<dim>96</dim>
					<dim>176</dim>
					<dim>176</dim>
				</port>
			</output>
		</layer>
		<layer id="27" name="data_add_3053430539/copy_const" type="Const" version="opset1">
			<data element_type="f16" offset="10592" shape="1,96,1,1" size="192"/>
			<output>
				<port id="1" precision="FP16">
					<dim>1</dim>
					<dim>96</dim>
					<dim>1</dim>
					<dim>1</dim>
				</port>
			</output>
		</layer>
		<layer id="28" name="379/variance/Fused_Add_" type="Add" version="opset1">
			<input>
				<port id="0">
					<dim>1</dim>
					<dim>96</dim>
					<dim>176</dim>
					<dim>176</dim>
				</port>
				<port id="1">
					<dim>1</dim>
					<dim>96</dim>
					<dim>1</dim>
					<dim>1</dim>
				</port>
			</input>
			<output>
				<port id="2" precision="FP16">
					<dim>1</dim>
					<dim>96</dim>
					<dim>176</dim>
					<dim>176</dim>
				</port>
			</output>
		</layer>
		<layer id="29" name="380" type="Clamp" version="opset1">
			<data max="6.0" min="0.0"/>
			<input>
				<port id="0">
					<dim>1</dim>
					<dim>96</dim>
					<dim>176</dim>
					<dim>176</dim>
				</port>
			</input>
			<output>
				<port id="1" precision="FP16">
					<dim>1</dim>
					<dim>96</dim>
					<dim>176</dim>
					<dim>176</dim>
				</port>
			</output>
		</layer>
		<layer id="30" name="382/mean/Fused_Mul_3295532957_const" type="Const" version="opset1">
			<data element_type="f16" offset="10784" shape="24,96,1,1" size="4608"/>
			<output>
				<port id="1" precision="FP16">
					<dim>24</dim>
					<dim>96</dim>
					<dim>1</dim>
					<dim>1</dim>
				</port>
			</output>
		</layer>
		<layer id="31" name="381" type="Convolution" version="opset1">
			<data dilations="1,1" output_padding="0,0" pads_begin="0,0" pads_end="0,0" strides="1,1"/>
			<input>
				<port id="0">
					<dim>1</dim>
					<dim>96</dim>
					<dim>176</dim>
					<dim>176</dim>
				</port>
				<port id="1">
					<dim>24</dim>
					<dim>96</dim>
					<dim>1</dim>
					<dim>1</dim>
				</port>
			</input>
			<output>
				<port id="2" precision="FP16">
					<dim>1</dim>
					<dim>24</dim>
					<dim>176</dim>
					<dim>176</dim>
				</port>
			</output>
		</layer>
		<layer id="32" name="data_add_3054230547/copy_const" type="Const" version="opset1">
			<data element_type="f16" offset="15392" shape="1,24,1,1" size="48"/>
			<output>
				<port id="1" precision="FP16">
					<dim>1</dim>
					<dim>24</dim>
					<dim>1</dim>
					<dim>1</dim>
				</port>
			</output>
		</layer>
		<layer id="33" name="382/variance/Fused_Add_" type="Add" version="opset1">
			<input>
				<port id="0">
					<dim>1</dim>
					<dim>24</dim>
					<dim>176</dim>
					<dim>176</dim>
				</port>
				<port id="1">
					<dim>1</dim>
					<dim>24</dim>
					<dim>1</dim>
					<dim>1</dim>
				</port>
			</input>
			<output>
				<port id="2" precision="FP16">
					<dim>1</dim>
					<dim>24</dim>
					<dim>176</dim>
					<dim>176</dim>
				</port>
			</output>
		</layer>
		<layer id="34" name="384/mean/Fused_Mul_3295932961_const" type="Const" version="opset1">
			<data element_type="f16" offset="15440" shape="144,24,1,1" size="6912"/>
			<output>
				<port id="1" precision="FP16">
					<dim>144</dim>
					<dim>24</dim>
					<dim>1</dim>
					<dim>1</dim>
				</port>
			</output>
		</layer>
		<layer id="35" name="383" type="Convolution" version="opset1">
			<data dilations="1,1" output_padding="0,0" pads_begin="0,0" pads_end="0,0" strides="1,1"/>
			<input>
				<port id="0">
					<dim>1</dim>
					<dim>24</dim>
					<dim>176</dim>
					<dim>176</dim>
				</port>
				<port id="1">
					<dim>144</dim>
					<dim>24</dim>
					<dim>1</dim>
					<dim>1</dim>
				</port>
			</input>
			<output>
				<port id="2" precision="FP16">
					<dim>1</dim>
					<dim>144</dim>
					<dim>176</dim>
					<dim>176</dim>
				</port>
			</output>
		</layer>
		<layer id="36" name="data_add_3055030555/copy_const" type="Const" version="opset1">
			<data element_type="f16" offset="22352" shape="1,144,1,1" size="288"/>
			<output>
				<port id="1" precision="FP16">
					<dim>1</dim>
					<dim>144</dim>
					<dim>1</dim>
					<dim>1</dim>
				</port>
			</output>
		</layer>
		<layer id="37" name="384/variance/Fused_Add_" type="Add" version="opset1">
			<input>
				<port id="0">
					<dim>1</dim>
					<dim>144</dim>
					<dim>176</dim>
					<dim>176</dim>
				</port>
				<port id="1">
					<dim>1</dim>
					<dim>144</dim>
					<dim>1</dim>
					<dim>1</dim>
				</port>
			</input>
			<output>
				<port id="2" precision="FP16">
					<dim>1</dim>
					<dim>144</dim>
					<dim>176</dim>
					<dim>176</dim>
				</port>
			</output>
		</layer>
		<layer id="38" name="385" type="Clamp" version="opset1">
			<data max="6.0" min="0.0"/>
			<input>
				<port id="0">
					<dim>1</dim>
					<dim>144</dim>
					<dim>176</dim>
					<dim>176</dim>
				</port>
			</input>
			<output>
				<port id="1" precision="FP16">
					<dim>1</dim>
					<dim>144</dim>
					<dim>176</dim>
					<dim>176</dim>
				</port>
			</output>
		</layer>
		<layer id="39" name="6213662139_const" type="Const" version="opset1">
			<data element_type="f16" offset="22640" shape="144,1,1,3,3" size="2592"/>
			<output>
				<port id="1" precision="FP16">
					<dim>144</dim>
					<dim>1</dim>
					<dim>1</dim>
					<dim>3</dim>
					<dim>3</dim>
				</port>
			</output>
		</layer>
		<layer id="40" name="386" type="GroupConvolution" version="opset1">
			<data dilations="1,1" output_padding="0,0" pads_begin="1,1" pads_end="1,1" strides="1,1"/>
			<input>
				<port id="0">
					<dim>1</dim>
					<dim>144</dim>
					<dim>176</dim>
					<dim>176</dim>
				</port>
				<port id="1">
					<dim>144</dim>
					<dim>1</dim>
					<dim>1</dim>
					<dim>3</dim>
					<dim>3</dim>
				</port>
			</input>
			<output>
				<port id="2" precision="FP16">
					<dim>1</dim>
					<dim>144</dim>
					<dim>176</dim>
					<dim>176</dim>
				</port>
			</output>
		</layer>
		<layer id="41" name="data_add_3055830563/copy_const" type="Const" version="opset1">
			<data element_type="f16" offset="25232" shape="1,144,1,1" size="288"/>
			<output>
				<port id="1" precision="FP16">
					<dim>1</dim>
					<dim>144</dim>
					<dim>1</dim>
					<dim>1</dim>
				</port>
			</output>
		</layer>
		<layer id="42" name="387/variance/Fused_Add_" type="Add" version="opset1">
			<input>
				<port id="0">
					<dim>1</dim>
					<dim>144</dim>
					<dim>176</dim>
					<dim>176</dim>
				</port>
				<port id="1">
					<dim>1</dim>
					<dim>144</dim>
					<dim>1</dim>
					<dim>1</dim>
				</port>
			</input>
			<output>
				<port id="2" precision="FP16">
					<dim>1</dim>
					<dim>144</dim>
					<dim>176</dim>
					<dim>176</dim>
				</port>
			</output>
		</layer>
		<layer id="43" name="388" type="Clamp" version="opset1">
			<data max="6.0" min="0.0"/>
			<input>
				<port id="0">
					<dim>1</dim>
					<dim>144</dim>
					<dim>176</dim>
					<dim>176</dim>
				</port>
			</input>
			<output>
				<port id="1" precision="FP16">
					<dim>1</dim>
					<dim>144</dim>
					<dim>176</dim>
					<dim>176</dim>
				</port>
			</output>
		</layer>
		<layer id="44" name="390/mean/Fused_Mul_3296732969_const" type="Const" version="opset1">
			<data element_type="f16" offset="25520" shape="24,144,1,1" size="6912"/>
			<output>
				<port id="1" precision="FP16">
					<dim>24</dim>
					<dim>144</dim>
					<dim>1</dim>
					<dim>1</dim>
				</port>
			</output>
		</layer>
		<layer id="45" name="389" type="Convolution" version="opset1">
			<data dilations="1,1" output_padding="0,0" pads_begin="0,0" pads_end="0,0" strides="1,1"/>
			<input>
				<port id="0">
					<dim>1</dim>
					<dim>144</dim>
					<dim>176</dim>
					<dim>176</dim>
				</port>
				<port id="1">
					<dim>24</dim>
					<dim>144</dim>
					<dim>1</dim>
					<dim>1</dim>
				</port>
			</input>
			<output>
				<port id="2" precision="FP16">
					<dim>1</dim>
					<dim>24</dim>
					<dim>176</dim>
					<dim>176</dim>
				</port>
			</output>
		</layer>
		<layer id="46" name="data_add_3056630571/copy_const" type="Const" version="opset1">
			<data element_type="f16" offset="32432" shape="1,24,1,1" size="48"/>
			<output>
				<port id="1" precision="FP16">
					<dim>1</dim>
					<dim>24</dim>
					<dim>1</dim>
					<dim>1</dim>
				</port>
			</output>
		</layer>
		<layer id="47" name="390/variance/Fused_Add_" type="Add" version="opset1">
			<input>
				<port id="0">
					<dim>1</dim>
					<dim>24</dim>
					<dim>176</dim>
					<dim>176</dim>
				</port>
				<port id="1">
					<dim>1</dim>
					<dim>24</dim>
					<dim>1</dim>
					<dim>1</dim>
				</port>
			</input>
			<output>
				<port id="2" precision="FP16">
					<dim>1</dim>
					<dim>24</dim>
					<dim>176</dim>
					<dim>176</dim>
				</port>
			</output>
		</layer>
		<layer id="48" name="391" type="Add" version="opset1">
			<input>
				<port id="0">
					<dim>1</dim>
					<dim>24</dim>
					<dim>176</dim>
					<dim>176</dim>
				</port>
				<port id="1">
					<dim>1</dim>
					<dim>24</dim>
					<dim>176</dim>
					<dim>176</dim>
				</port>
			</input>
			<output>
				<port id="2" precision="FP16">
					<dim>1</dim>
					<dim>24</dim>
					<dim>176</dim>
					<dim>176</dim>
				</port>
			</output>
		</layer>
		<layer id="49" name="393/mean/Fused_Mul_3297132973_const" type="Const" version="opset1">
			<data element_type="f16" offset="32480" shape="144,24,1,1" size="6912"/>
			<output>
				<port id="1" precision="FP16">
					<dim>144</dim>
					<dim>24</dim>
					<dim>1</dim>
					<dim>1</dim>
				</port>
			</output>
		</layer>
		<layer id="50" name="392" type="Convolution" version="opset1">
			<data dilations="1,1" output_padding="0,0" pads_begin="0,0" pads_end="0,0" strides="1,1"/>
			<input>
				<port id="0">
					<dim>1</dim>
					<dim>24</dim>
					<dim>176</dim>
					<dim>176</dim>
				</port>
				<port id="1">
					<dim>144</dim>
					<dim>24</dim>
					<dim>1</dim>
					<dim>1</dim>
				</port>
			</input>
			<output>
				<port id="2" precision="FP16">
					<dim>1</dim>
					<dim>144</dim>
					<dim>176</dim>
					<dim>176</dim>
				</port>
			</output>
		</layer>
		<layer id="51" name="data_add_3057430579/copy_const" type="Const" version="opset1">
			<data element_type="f16" offset="39392" shape="1,144,1,1" size="288"/>
			<output>
				<port id="1" precision="FP16">
					<dim>1</dim>
					<dim>144</dim>
					<dim>1</dim>
					<dim>1</dim>
				</port>
			</output>
		</layer>
		<layer id="52" name="393/variance/Fused_Add_" type="Add" version="opset1">
			<input>
				<port id="0">
					<dim>1</dim>
					<dim>144</dim>
					<dim>176</dim>
					<dim>176</dim>
				</port>
				<port id="1">
					<dim>1</dim>
					<dim>144</dim>
					<dim>1</dim>
					<dim>1</dim>
				</port>
			</input>
			<output>
				<port id="2" precision="FP16">
					<dim>1</dim>
					<dim>144</dim>
					<dim>176</dim>
					<dim>176</dim>
				</port>
			</output>
		</layer>
		<layer id="53" name="394" type="Clamp" version="opset1">
			<data max="6.0" min="0.0"/>
			<input>
				<port id="0">
					<dim>1</dim>
					<dim>144</dim>
					<dim>176</dim>
					<dim>176</dim>
				</port>
			</input>
			<output>
				<port id="1" precision="FP16">
					<dim>1</dim>
					<dim>144</dim>
					<dim>176</dim>
					<dim>176</dim>
				</port>
			</output>
		</layer>
		<layer id="54" name="6210862111_const" type="Const" version="opset1">
			<data element_type="f16" offset="39680" shape="144,1,1,3,3" size="2592"/>
			<output>
				<port id="1" precision="FP16">
					<dim>144</dim>
					<dim>1</dim>
					<dim>1</dim>
					<dim>3</dim>
					<dim>3</dim>
				</port>
			</output>
		</layer>
		<layer id="55" name="395" type="GroupConvolution" version="opset1">
			<data dilations="1,1" output_padding="0,0" pads_begin="1,1" pads_end="1,1" strides="2,2"/>
			<input>
				<port id="0">
					<dim>1</dim>
					<dim>144</dim>
					<dim>176</dim>
					<dim>176</dim>
				</port>
				<port id="1">
					<dim>144</dim>
					<dim>1</dim>
					<dim>1</dim>
					<dim>3</dim>
					<dim>3</dim>
				</port>
			</input>
			<output>
				<port id="2" precision="FP16">
					<dim>1</dim>
					<dim>144</dim>
					<dim>88</dim>
					<dim>88</dim>
				</port>
			</output>
		</layer>
		<layer id="56" name="data_add_3058230587/copy_const" type="Const" version="opset1">
			<data element_type="f16" offset="42272" shape="1,144,1,1" size="288"/>
			<output>
				<port id="1" precision="FP16">
					<dim>1</dim>
					<dim>144</dim>
					<dim>1</dim>
					<dim>1</dim>
				</port>
			</output>
		</layer>
		<layer id="57" name="396/variance/Fused_Add_" type="Add" version="opset1">
			<input>
				<port id="0">
					<dim>1</dim>
					<dim>144</dim>
					<dim>88</dim>
					<dim>88</dim>
				</port>
				<port id="1">
					<dim>1</dim>
					<dim>144</dim>
					<dim>1</dim>
					<dim>1</dim>
				</port>
			</input>
			<output>
				<port id="2" precision="FP16">
					<dim>1</dim>
					<dim>144</dim>
					<dim>88</dim>
					<dim>88</dim>
				</port>
			</output>
		</layer>
		<layer id="58" name="397" type="Clamp" version="opset1">
			<data max="6.0" min="0.0"/>
			<input>
				<port id="0">
					<dim>1</dim>
					<dim>144</dim>
					<dim>88</dim>
					<dim>88</dim>
				</port>
			</input>
			<output>
				<port id="1" precision="FP16">
					<dim>1</dim>
					<dim>144</dim>
					<dim>88</dim>
					<dim>88</dim>
				</port>
			</output>
		</layer>
		<layer id="59" name="399/mean/Fused_Mul_3297932981_const" type="Const" version="opset1">
			<data element_type="f16" offset="42560" shape="32,144,1,1" size="9216"/>
			<output>
				<port id="1" precision="FP16">
					<dim>32</dim>
					<dim>144</dim>
					<dim>1</dim>
					<dim>1</dim>
				</port>
			</output>
		</layer>
		<layer id="60" name="398" type="Convolution" version="opset1">
			<data dilations="1,1" output_padding="0,0" pads_begin="0,0" pads_end="0,0" strides="1,1"/>
			<input>
				<port id="0">
					<dim>1</dim>
					<dim>144</dim>
					<dim>88</dim>
					<dim>88</dim>
				</port>
				<port id="1">
					<dim>32</dim>
					<dim>144</dim>
					<dim>1</dim>
					<dim>1</dim>
				</port>
			</input>
			<output>
				<port id="2" precision="FP16">
					<dim>1</dim>
					<dim>32</dim>
					<dim>88</dim>
					<dim>88</dim>
				</port>
			</output>
		</layer>
		<layer id="61" name="data_add_3059030595/copy_const" type="Const" version="opset1">
			<data element_type="f16" offset="51776" shape="1,32,1,1" size="64"/>
			<output>
				<port id="1" precision="FP16">
					<dim>1</dim>
					<dim>32</dim>
					<dim>1</dim>
					<dim>1</dim>
				</port>
			</output>
		</layer>
		<layer id="62" name="399/variance/Fused_Add_" type="Add" version="opset1">
			<input>
				<port id="0">
					<dim>1</dim>
					<dim>32</dim>
					<dim>88</dim>
					<dim>88</dim>
				</port>
				<port id="1">
					<dim>1</dim>
					<dim>32</dim>
					<dim>1</dim>
					<dim>1</dim>
				</port>
			</input>
			<output>
				<port id="2" precision="FP16">
					<dim>1</dim>
					<dim>32</dim>
					<dim>88</dim>
					<dim>88</dim>
				</port>
			</output>
		</layer>
		<layer id="63" name="401/mean/Fused_Mul_3298332985_const" type="Const" version="opset1">
			<data element_type="f16" offset="51840" shape="192,32,1,1" size="12288"/>
			<output>
				<port id="1" precision="FP16">
					<dim>192</dim>
					<dim>32</dim>
					<dim>1</dim>
					<dim>1</dim>
				</port>
			</output>
		</layer>
		<layer id="64" name="400" type="Convolution" version="opset1">
			<data dilations="1,1" output_padding="0,0" pads_begin="0,0" pads_end="0,0" strides="1,1"/>
			<input>
				<port id="0">
					<dim>1</dim>
					<dim>32</dim>
					<dim>88</dim>
					<dim>88</dim>
				</port>
				<port id="1">
					<dim>192</dim>
					<dim>32</dim>
					<dim>1</dim>
					<dim>1</dim>
				</port>
			</input>
			<output>
				<port id="2" precision="FP16">
					<dim>1</dim>
					<dim>192</dim>
					<dim>88</dim>
					<dim>88</dim>
				</port>
			</output>
		</layer>
		<layer id="65" name="data_add_3059830603/copy_const" type="Const" version="opset1">
			<data element_type="f16" offset="64128" shape="1,192,1,1" size="384"/>
			<output>
				<port id="1" precision="FP16">
					<dim>1</dim>
					<dim>192</dim>
					<dim>1</dim>
					<dim>1</dim>
				</port>
			</output>
		</layer>
		<layer id="66" name="401/variance/Fused_Add_" type="Add" version="opset1">
			<input>
				<port id="0">
					<dim>1</dim>
					<dim>192</dim>
					<dim>88</dim>
					<dim>88</dim>
				</port>
				<port id="1">
					<dim>1</dim>
					<dim>192</dim>
					<dim>1</dim>
					<dim>1</dim>
				</port>
			</input>
			<output>
				<port id="2" precision="FP16">
					<dim>1</dim>
					<dim>192</dim>
					<dim>88</dim>
					<dim>88</dim>
				</port>
			</output>
		</layer>
		<layer id="67" name="402" type="Clamp" version="opset1">
			<data max="6.0" min="0.0"/>
			<input>
				<port id="0">
					<dim>1</dim>
					<dim>192</dim>
					<dim>88</dim>
					<dim>88</dim>
				</port>
			</input>
			<output>
				<port id="1" precision="FP16">
					<dim>1</dim>
					<dim>192</dim>
					<dim>88</dim>
					<dim>88</dim>
				</port>
			</output>
		</layer>
		<layer id="68" name="6212462127_const" type="Const" version="opset1">
			<data element_type="f16" offset="64512" shape="192,1,1,3,3" size="3456"/>
			<output>
				<port id="1" precision="FP16">
					<dim>192</dim>
					<dim>1</dim>
					<dim>1</dim>
					<dim>3</dim>
					<dim>3</dim>
				</port>
			</output>
		</layer>
		<layer id="69" name="403" type="GroupConvolution" version="opset1">
			<data dilations="1,1" output_padding="0,0" pads_begin="1,1" pads_end="1,1" strides="1,1"/>
			<input>
				<port id="0">
					<dim>1</dim>
					<dim>192</dim>
					<dim>88</dim>
					<dim>88</dim>
				</port>
				<port id="1">
					<dim>192</dim>
					<dim>1</dim>
					<dim>1</dim>
					<dim>3</dim>
					<dim>3</dim>
				</port>
			</input>
			<output>
				<port id="2" precision="FP16">
					<dim>1</dim>
					<dim>192</dim>
					<dim>88</dim>
					<dim>88</dim>
				</port>
			</output>
		</layer>
		<layer id="70" name="data_add_3060630611/copy_const" type="Const" version="opset1">
			<data element_type="f16" offset="67968" shape="1,192,1,1" size="384"/>
			<output>
				<port id="1" precision="FP16">
					<dim>1</dim>
					<dim>192</dim>
					<dim>1</dim>
					<dim>1</dim>
				</port>
			</output>
		</layer>
		<layer id="71" name="404/variance/Fused_Add_" type="Add" version="opset1">
			<input>
				<port id="0">
					<dim>1</dim>
					<dim>192</dim>
					<dim>88</dim>
					<dim>88</dim>
				</port>
				<port id="1">
					<dim>1</dim>
					<dim>192</dim>
					<dim>1</dim>
					<dim>1</dim>
				</port>
			</input>
			<output>
				<port id="2" precision="FP16">
					<dim>1</dim>
					<dim>192</dim>
					<dim>88</dim>
					<dim>88</dim>
				</port>
			</output>
		</layer>
		<layer id="72" name="405" type="Clamp" version="opset1">
			<data max="6.0" min="0.0"/>
			<input>
				<port id="0">
					<dim>1</dim>
					<dim>192</dim>
					<dim>88</dim>
					<dim>88</dim>
				</port>
			</input>
			<output>
				<port id="1" precision="FP16">
					<dim>1</dim>
					<dim>192</dim>
					<dim>88</dim>
					<dim>88</dim>
				</port>
			</output>
		</layer>
		<layer id="73" name="407/mean/Fused_Mul_3299132993_const" type="Const" version="opset1">
			<data element_type="f16" offset="68352" shape="32,192,1,1" size="12288"/>
			<output>
				<port id="1" precision="FP16">
					<dim>32</dim>
					<dim>192</dim>
					<dim>1</dim>
					<dim>1</dim>
				</port>
			</output>
		</layer>
		<layer id="74" name="406" type="Convolution" version="opset1">
			<data dilations="1,1" output_padding="0,0" pads_begin="0,0" pads_end="0,0" strides="1,1"/>
			<input>
				<port id="0">
					<dim>1</dim>
					<dim>192</dim>
					<dim>88</dim>
					<dim>88</dim>
				</port>
				<port id="1">
					<dim>32</dim>
					<dim>192</dim>
					<dim>1</dim>
					<dim>1</dim>
				</port>
			</input>
			<output>
				<port id="2" precision="FP16">
					<dim>1</dim>
					<dim>32</dim>
					<dim>88</dim>
					<dim>88</dim>
				</port>
			</output>
		</layer>
		<layer id="75" name="data_add_3061430619/copy_const" type="Const" version="opset1">
			<data element_type="f16" offset="80640" shape="1,32,1,1" size="64"/>
			<output>
				<port id="1" precision="FP16">
					<dim>1</dim>
					<dim>32</dim>
					<dim>1</dim>
					<dim>1</dim>
				</port>
			</output>
		</layer>
		<layer id="76" name="407/variance/Fused_Add_" type="Add" version="opset1">
			<input>
				<port id="0">
					<dim>1</dim>
					<dim>32</dim>
					<dim>88</dim>
					<dim>88</dim>
				</port>
				<port id="1">
					<dim>1</dim>
					<dim>32</dim>
					<dim>1</dim>
					<dim>1</dim>
				</port>
			</input>
			<output>
				<port id="2" precision="FP16">
					<dim>1</dim>
					<dim>32</dim>
					<dim>88</dim>
					<dim>88</dim>
				</port>
			</output>
		</layer>
		<layer id="77" name="408" type="Add" version="opset1">
			<input>
				<port id="0">
					<dim>1</dim>
					<dim>32</dim>
					<dim>88</dim>
					<dim>88</dim>
				</port>
				<port id="1">
					<dim>1</dim>
					<dim>32</dim>
					<dim>88</dim>
					<dim>88</dim>
				</port>
			</input>
			<output>
				<port id="2" precision="FP16">
					<dim>1</dim>
					<dim>32</dim>
					<dim>88</dim>
					<dim>88</dim>
				</port>
			</output>
		</layer>
		<layer id="78" name="410/mean/Fused_Mul_3299532997_const" type="Const" version="opset1">
			<data element_type="f16" offset="80704" shape="192,32,1,1" size="12288"/>
			<output>
				<port id="1" precision="FP16">
					<dim>192</dim>
					<dim>32</dim>
					<dim>1</dim>
					<dim>1</dim>
				</port>
			</output>
		</layer>
		<layer id="79" name="409" type="Convolution" version="opset1">
			<data dilations="1,1" output_padding="0,0" pads_begin="0,0" pads_end="0,0" strides="1,1"/>
			<input>
				<port id="0">
					<dim>1</dim>
					<dim>32</dim>
					<dim>88</dim>
					<dim>88</dim>
				</port>
				<port id="1">
					<dim>192</dim>
					<dim>32</dim>
					<dim>1</dim>
					<dim>1</dim>
				</port>
			</input>
			<output>
				<port id="2" precision="FP16">
					<dim>1</dim>
					<dim>192</dim>
					<dim>88</dim>
					<dim>88</dim>
				</port>
			</output>
		</layer>
		<layer id="80" name="data_add_3062230627/copy_const" type="Const" version="opset1">
			<data element_type="f16" offset="92992" shape="1,192,1,1" size="384"/>
			<output>
				<port id="1" precision="FP16">
					<dim>1</dim>
					<dim>192</dim>
					<dim>1</dim>
					<dim>1</dim>
				</port>
			</output>
		</layer>
		<layer id="81" name="410/variance/Fused_Add_" type="Add" version="opset1">
			<input>
				<port id="0">
					<dim>1</dim>
					<dim>192</dim>
					<dim>88</dim>
					<dim>88</dim>
				</port>
				<port id="1">
					<dim>1</dim>
					<dim>192</dim>
					<dim>1</dim>
					<dim>1</dim>
				</port>
			</input>
			<output>
				<port id="2" precision="FP16">
					<dim>1</dim>
					<dim>192</dim>
					<dim>88</dim>
					<dim>88</dim>
				</port>
			</output>
		</layer>
		<layer id="82" name="411" type="Clamp" version="opset1">
			<data max="6.0" min="0.0"/>
			<input>
				<port id="0">
					<dim>1</dim>
					<dim>192</dim>
					<dim>88</dim>
					<dim>88</dim>
				</port>
			</input>
			<output>
				<port id="1" precision="FP16">
					<dim>1</dim>
					<dim>192</dim>
					<dim>88</dim>
					<dim>88</dim>
				</port>
			</output>
		</layer>
		<layer id="83" name="6211662119_const" type="Const" version="opset1">
			<data element_type="f16" offset="93376" shape="192,1,1,3,3" size="3456"/>
			<output>
				<port id="1" precision="FP16">
					<dim>192</dim>
					<dim>1</dim>
					<dim>1</dim>
					<dim>3</dim>
					<dim>3</dim>
				</port>
			</output>
		</layer>
		<layer id="84" name="412" type="GroupConvolution" version="opset1">
			<data dilations="1,1" output_padding="0,0" pads_begin="1,1" pads_end="1,1" strides="1,1"/>
			<input>
				<port id="0">
					<dim>1</dim>
					<dim>192</dim>
					<dim>88</dim>
					<dim>88</dim>
				</port>
				<port id="1">
					<dim>192</dim>
					<dim>1</dim>
					<dim>1</dim>
					<dim>3</dim>
					<dim>3</dim>
				</port>
			</input>
			<output>
				<port id="2" precision="FP16">
					<dim>1</dim>
					<dim>192</dim>
					<dim>88</dim>
					<dim>88</dim>
				</port>
			</output>
		</layer>
		<layer id="85" name="data_add_3063030635/copy_const" type="Const" version="opset1">
			<data element_type="f16" offset="96832" shape="1,192,1,1" size="384"/>
			<output>
				<port id="1" precision="FP16">
					<dim>1</dim>
					<dim>192</dim>
					<dim>1</dim>
					<dim>1</dim>
				</port>
			</output>
		</layer>
		<layer id="86" name="413/variance/Fused_Add_" type="Add" version="opset1">
			<input>
				<port id="0">
					<dim>1</dim>
					<dim>192</dim>
					<dim>88</dim>
					<dim>88</dim>
				</port>
				<port id="1">
					<dim>1</dim>
					<dim>192</dim>
					<dim>1</dim>
					<dim>1</dim>
				</port>
			</input>
			<output>
				<port id="2" precision="FP16">
					<dim>1</dim>
					<dim>192</dim>
					<dim>88</dim>
					<dim>88</dim>
				</port>
			</output>
		</layer>
		<layer id="87" name="414" type="Clamp" version="opset1">
			<data max="6.0" min="0.0"/>
			<input>
				<port id="0">
					<dim>1</dim>
					<dim>192</dim>
					<dim>88</dim>
					<dim>88</dim>
				</port>
			</input>
			<output>
				<port id="1" precision="FP16">
					<dim>1</dim>
					<dim>192</dim>
					<dim>88</dim>
					<dim>88</dim>
				</port>
			</output>
		</layer>
		<layer id="88" name="416/mean/Fused_Mul_3300333005_const" type="Const" version="opset1">
			<data element_type="f16" offset="97216" shape="32,192,1,1" size="12288"/>
			<output>
				<port id="1" precision="FP16">
					<dim>32</dim>
					<dim>192</dim>
					<dim>1</dim>
					<dim>1</dim>
				</port>
			</output>
		</layer>
		<layer id="89" name="415" type="Convolution" version="opset1">
			<data dilations="1,1" output_padding="0,0" pads_begin="0,0" pads_end="0,0" strides="1,1"/>
			<input>
				<port id="0">
					<dim>1</dim>
					<dim>192</dim>
					<dim>88</dim>
					<dim>88</dim>
				</port>
				<port id="1">
					<dim>32</dim>
					<dim>192</dim>
					<dim>1</dim>
					<dim>1</dim>
				</port>
			</input>
			<output>
				<port id="2" precision="FP16">
					<dim>1</dim>
					<dim>32</dim>
					<dim>88</dim>
					<dim>88</dim>
				</port>
			</output>
		</layer>
		<layer id="90" name="data_add_3063830643/copy_const" type="Const" version="opset1">
			<data element_type="f16" offset="109504" shape="1,32,1,1" size="64"/>
			<output>
				<port id="1" precision="FP16">
					<dim>1</dim>
					<dim>32</dim>
					<dim>1</dim>
					<dim>1</dim>
				</port>
			</output>
		</layer>
		<layer id="91" name="416/variance/Fused_Add_" type="Add" version="opset1">
			<input>
				<port id="0">
					<dim>1</dim>
					<dim>32</dim>
					<dim>88</dim>
					<dim>88</dim>
				</port>
				<port id="1">
					<dim>1</dim>
					<dim>32</dim>
					<dim>1</dim>
					<dim>1</dim>
				</port>
			</input>
			<output>
				<port id="2" precision="FP16">
					<dim>1</dim>
					<dim>32</dim>
					<dim>88</dim>
					<dim>88</dim>
				</port>
			</output>
		</layer>
		<layer id="92" name="417" type="Add" version="opset1">
			<input>
				<port id="0">
					<dim>1</dim>
					<dim>32</dim>
					<dim>88</dim>
					<dim>88</dim>
				</port>
				<port id="1">
					<dim>1</dim>
					<dim>32</dim>
					<dim>88</dim>
					<dim>88</dim>
				</port>
			</input>
			<output>
				<port id="2" precision="FP16">
					<dim>1</dim>
					<dim>32</dim>
					<dim>88</dim>
					<dim>88</dim>
				</port>
			</output>
		</layer>
		<layer id="93" name="onnx_initializer_node_neck.lateral_convs.0.conv.weight/Output_0/Data__const" type="Const" version="opset1">
			<data element_type="f16" offset="109568" shape="32,32,1,1" size="2048"/>
			<output>
				<port id="1" precision="FP16">
					<dim>32</dim>
					<dim>32</dim>
					<dim>1</dim>
					<dim>1</dim>
				</port>
			</output>
		</layer>
		<layer id="94" name="513/WithoutBiases" type="Convolution" version="opset1">
			<data dilations="1,1" output_padding="0,0" pads_begin="0,0" pads_end="0,0" strides="1,1"/>
			<input>
				<port id="0">
					<dim>1</dim>
					<dim>32</dim>
					<dim>88</dim>
					<dim>88</dim>
				</port>
				<port id="1">
					<dim>32</dim>
					<dim>32</dim>
					<dim>1</dim>
					<dim>1</dim>
				</port>
			</input>
			<output>
				<port id="2" precision="FP16">
					<dim>1</dim>
					<dim>32</dim>
					<dim>88</dim>
					<dim>88</dim>
				</port>
			</output>
		</layer>
		<layer id="95" name="513/Dims18910/copy_const" type="Const" version="opset1">
			<data element_type="f16" offset="111616" shape="1,32,1,1" size="64"/>
			<output>
				<port id="1" precision="FP16">
					<dim>1</dim>
					<dim>32</dim>
					<dim>1</dim>
					<dim>1</dim>
				</port>
			</output>
		</layer>
		<layer id="96" name="513" type="Add" version="opset1">
			<input>
				<port id="0">
					<dim>1</dim>
					<dim>32</dim>
					<dim>88</dim>
					<dim>88</dim>
				</port>
				<port id="1">
					<dim>1</dim>
					<dim>32</dim>
					<dim>1</dim>
					<dim>1</dim>
				</port>
			</input>
			<output>
				<port id="2" precision="FP16">
					<dim>1</dim>
					<dim>32</dim>
					<dim>88</dim>
					<dim>88</dim>
				</port>
			</output>
		</layer>
		<layer id="97" name="419/mean/Fused_Mul_3300733009_const" type="Const" version="opset1">
			<data element_type="f16" offset="111680" shape="192,32,1,1" size="12288"/>
			<output>
				<port id="1" precision="FP16">
					<dim>192</dim>
					<dim>32</dim>
					<dim>1</dim>
					<dim>1</dim>
				</port>
			</output>
		</layer>
		<layer id="98" name="418" type="Convolution" version="opset1">
			<data dilations="1,1" output_padding="0,0" pads_begin="0,0" pads_end="0,0" strides="1,1"/>
			<input>
				<port id="0">
					<dim>1</dim>
					<dim>32</dim>
					<dim>88</dim>
					<dim>88</dim>
				</port>
				<port id="1">
					<dim>192</dim>
					<dim>32</dim>
					<dim>1</dim>
					<dim>1</dim>
				</port>
			</input>
			<output>
				<port id="2" precision="FP16">
					<dim>1</dim>
					<dim>192</dim>
					<dim>88</dim>
					<dim>88</dim>
				</port>
			</output>
		</layer>
		<layer id="99" name="data_add_3064630651/copy_const" type="Const" version="opset1">
			<data element_type="f16" offset="123968" shape="1,192,1,1" size="384"/>
			<output>
				<port id="1" precision="FP16">
					<dim>1</dim>
					<dim>192</dim>
					<dim>1</dim>
					<dim>1</dim>
				</port>
			</output>
		</layer>
		<layer id="100" name="419/variance/Fused_Add_" type="Add" version="opset1">
			<input>
				<port id="0">
					<dim>1</dim>
					<dim>192</dim>
					<dim>88</dim>
					<dim>88</dim>
				</port>
				<port id="1">
					<dim>1</dim>
					<dim>192</dim>
					<dim>1</dim>
					<dim>1</dim>
				</port>
			</input>
			<output>
				<port id="2" precision="FP16">
					<dim>1</dim>
					<dim>192</dim>
					<dim>88</dim>
					<dim>88</dim>
				</port>
			</output>
		</layer>
		<layer id="101" name="420" type="Clamp" version="opset1">
			<data max="6.0" min="0.0"/>
			<input>
				<port id="0">
					<dim>1</dim>
					<dim>192</dim>
					<dim>88</dim>
					<dim>88</dim>
				</port>
			</input>
			<output>
				<port id="1" precision="FP16">
					<dim>1</dim>
					<dim>192</dim>
					<dim>88</dim>
					<dim>88</dim>
				</port>
			</output>
		</layer>
		<layer id="102" name="6216462167_const" type="Const" version="opset1">
			<data element_type="f16" offset="124352" shape="192,1,1,3,3" size="3456"/>
			<output>
				<port id="1" precision="FP16">
					<dim>192</dim>
					<dim>1</dim>
					<dim>1</dim>
					<dim>3</dim>
					<dim>3</dim>
				</port>
			</output>
		</layer>
		<layer id="103" name="421" type="GroupConvolution" version="opset1">
			<data dilations="1,1" output_padding="0,0" pads_begin="1,1" pads_end="1,1" strides="2,2"/>
			<input>
				<port id="0">
					<dim>1</dim>
					<dim>192</dim>
					<dim>88</dim>
					<dim>88</dim>
				</port>
				<port id="1">
					<dim>192</dim>
					<dim>1</dim>
					<dim>1</dim>
					<dim>3</dim>
					<dim>3</dim>
				</port>
			</input>
			<output>
				<port id="2" precision="FP16">
					<dim>1</dim>
					<dim>192</dim>
					<dim>44</dim>
					<dim>44</dim>
				</port>
			</output>
		</layer>
		<layer id="104" name="data_add_3065430659/copy_const" type="Const" version="opset1">
			<data element_type="f16" offset="127808" shape="1,192,1,1" size="384"/>
			<output>
				<port id="1" precision="FP16">
					<dim>1</dim>
					<dim>192</dim>
					<dim>1</dim>
					<dim>1</dim>
				</port>
			</output>
		</layer>
		<layer id="105" name="422/variance/Fused_Add_" type="Add" version="opset1">
			<input>
				<port id="0">
					<dim>1</dim>
					<dim>192</dim>
					<dim>44</dim>
					<dim>44</dim>
				</port>
				<port id="1">
					<dim>1</dim>
					<dim>192</dim>
					<dim>1</dim>
					<dim>1</dim>
				</port>
			</input>
			<output>
				<port id="2" precision="FP16">
					<dim>1</dim>
					<dim>192</dim>
					<dim>44</dim>
					<dim>44</dim>
				</port>
			</output>
		</layer>
		<layer id="106" name="423" type="Clamp" version="opset1">
			<data max="6.0" min="0.0"/>
			<input>
				<port id="0">
					<dim>1</dim>
					<dim>192</dim>
					<dim>44</dim>
					<dim>44</dim>
				</port>
			</input>
			<output>
				<port id="1" precision="FP16">
					<dim>1</dim>
					<dim>192</dim>
					<dim>44</dim>
					<dim>44</dim>
				</port>
			</output>
		</layer>
		<layer id="107" name="425/mean/Fused_Mul_3301533017_const" type="Const" version="opset1">
			<data element_type="f16" offset="128192" shape="64,192,1,1" size="24576"/>
			<output>
				<port id="1" precision="FP16">
					<dim>64</dim>
					<dim>192</dim>
					<dim>1</dim>
					<dim>1</dim>
				</port>
			</output>
		</layer>
		<layer id="108" name="424" type="Convolution" version="opset1">
			<data dilations="1,1" output_padding="0,0" pads_begin="0,0" pads_end="0,0" strides="1,1"/>
			<input>
				<port id="0">
					<dim>1</dim>
					<dim>192</dim>
					<dim>44</dim>
					<dim>44</dim>
				</port>
				<port id="1">
					<dim>64</dim>
					<dim>192</dim>
					<dim>1</dim>
					<dim>1</dim>
				</port>
			</input>
			<output>
				<port id="2" precision="FP16">
					<dim>1</dim>
					<dim>64</dim>
					<dim>44</dim>
					<dim>44</dim>
				</port>
			</output>
		</layer>
		<layer id="109" name="data_add_3066230667/copy_const" type="Const" version="opset1">
			<data element_type="f16" offset="152768" shape="1,64,1,1" size="128"/>
			<output>
				<port id="1" precision="FP16">
					<dim>1</dim>
					<dim>64</dim>
					<dim>1</dim>
					<dim>1</dim>
				</port>
			</output>
		</layer>
		<layer id="110" name="425/variance/Fused_Add_" type="Add" version="opset1">
			<input>
				<port id="0">
					<dim>1</dim>
					<dim>64</dim>
					<dim>44</dim>
					<dim>44</dim>
				</port>
				<port id="1">
					<dim>1</dim>
					<dim>64</dim>
					<dim>1</dim>
					<dim>1</dim>
				</port>
			</input>
			<output>
				<port id="2" precision="FP16">
					<dim>1</dim>
					<dim>64</dim>
					<dim>44</dim>
					<dim>44</dim>
				</port>
			</output>
		</layer>
		<layer id="111" name="427/mean/Fused_Mul_3301933021_const" type="Const" version="opset1">
			<data element_type="f16" offset="152896" shape="384,64,1,1" size="49152"/>
			<output>
				<port id="1" precision="FP16">
					<dim>384</dim>
					<dim>64</dim>
					<dim>1</dim>
					<dim>1</dim>
				</port>
			</output>
		</layer>
		<layer id="112" name="426" type="Convolution" version="opset1">
			<data dilations="1,1" output_padding="0,0" pads_begin="0,0" pads_end="0,0" strides="1,1"/>
			<input>
				<port id="0">
					<dim>1</dim>
					<dim>64</dim>
					<dim>44</dim>
					<dim>44</dim>
				</port>
				<port id="1">
					<dim>384</dim>
					<dim>64</dim>
					<dim>1</dim>
					<dim>1</dim>
				</port>
			</input>
			<output>
				<port id="2" precision="FP16">
					<dim>1</dim>
					<dim>384</dim>
					<dim>44</dim>
					<dim>44</dim>
				</port>
			</output>
		</layer>
		<layer id="113" name="data_add_3067030675/copy_const" type="Const" version="opset1">
			<data element_type="f16" offset="202048" shape="1,384,1,1" size="768"/>
			<output>
				<port id="1" precision="FP16">
					<dim>1</dim>
					<dim>384</dim>
					<dim>1</dim>
					<dim>1</dim>
				</port>
			</output>
		</layer>
		<layer id="114" name="427/variance/Fused_Add_" type="Add" version="opset1">
			<input>
				<port id="0">
					<dim>1</dim>
					<dim>384</dim>
					<dim>44</dim>
					<dim>44</dim>
				</port>
				<port id="1">
					<dim>1</dim>
					<dim>384</dim>
					<dim>1</dim>
					<dim>1</dim>
				</port>
			</input>
			<output>
				<port id="2" precision="FP16">
					<dim>1</dim>
					<dim>384</dim>
					<dim>44</dim>
					<dim>44</dim>
				</port>
			</output>
		</layer>
		<layer id="115" name="428" type="Clamp" version="opset1">
			<data max="6.0" min="0.0"/>
			<input>
				<port id="0">
					<dim>1</dim>
					<dim>384</dim>
					<dim>44</dim>
					<dim>44</dim>
				</port>
			</input>
			<output>
				<port id="1" precision="FP16">
					<dim>1</dim>
					<dim>384</dim>
					<dim>44</dim>
					<dim>44</dim>
				</port>
			</output>
		</layer>
		<layer id="116" name="6214862151_const" type="Const" version="opset1">
			<data element_type="f16" offset="202816" shape="384,1,1,3,3" size="6912"/>
			<output>
				<port id="1" precision="FP16">
					<dim>384</dim>
					<dim>1</dim>
					<dim>1</dim>
					<dim>3</dim>
					<dim>3</dim>
				</port>
			</output>
		</layer>
		<layer id="117" name="429" type="GroupConvolution" version="opset1">
			<data dilations="1,1" output_padding="0,0" pads_begin="1,1" pads_end="1,1" strides="1,1"/>
			<input>
				<port id="0">
					<dim>1</dim>
					<dim>384</dim>
					<dim>44</dim>
					<dim>44</dim>
				</port>
				<port id="1">
					<dim>384</dim>
					<dim>1</dim>
					<dim>1</dim>
					<dim>3</dim>
					<dim>3</dim>
				</port>
			</input>
			<output>
				<port id="2" precision="FP16">
					<dim>1</dim>
					<dim>384</dim>
					<dim>44</dim>
					<dim>44</dim>
				</port>
			</output>
		</layer>
		<layer id="118" name="data_add_3067830683/copy_const" type="Const" version="opset1">
			<data element_type="f16" offset="209728" shape="1,384,1,1" size="768"/>
			<output>
				<port id="1" precision="FP16">
					<dim>1</dim>
					<dim>384</dim>
					<dim>1</dim>
					<dim>1</dim>
				</port>
			</output>
		</layer>
		<layer id="119" name="430/variance/Fused_Add_" type="Add" version="opset1">
			<input>
				<port id="0">
					<dim>1</dim>
					<dim>384</dim>
					<dim>44</dim>
					<dim>44</dim>
				</port>
				<port id="1">
					<dim>1</dim>
					<dim>384</dim>
					<dim>1</dim>
					<dim>1</dim>
				</port>
			</input>
			<output>
				<port id="2" precision="FP16">
					<dim>1</dim>
					<dim>384</dim>
					<dim>44</dim>
					<dim>44</dim>
				</port>
			</output>
		</layer>
		<layer id="120" name="431" type="Clamp" version="opset1">
			<data max="6.0" min="0.0"/>
			<input>
				<port id="0">
					<dim>1</dim>
					<dim>384</dim>
					<dim>44</dim>
					<dim>44</dim>
				</port>
			</input>
			<output>
				<port id="1" precision="FP16">
					<dim>1</dim>
					<dim>384</dim>
					<dim>44</dim>
					<dim>44</dim>
				</port>
			</output>
		</layer>
		<layer id="121" name="433/mean/Fused_Mul_3302733029_const" type="Const" version="opset1">
			<data element_type="f16" offset="210496" shape="64,384,1,1" size="49152"/>
			<output>
				<port id="1" precision="FP16">
					<dim>64</dim>
					<dim>384</dim>
					<dim>1</dim>
					<dim>1</dim>
				</port>
			</output>
		</layer>
		<layer id="122" name="432" type="Convolution" version="opset1">
			<data dilations="1,1" output_padding="0,0" pads_begin="0,0" pads_end="0,0" strides="1,1"/>
			<input>
				<port id="0">
					<dim>1</dim>
					<dim>384</dim>
					<dim>44</dim>
					<dim>44</dim>
				</port>
				<port id="1">
					<dim>64</dim>
					<dim>384</dim>
					<dim>1</dim>
					<dim>1</dim>
				</port>
			</input>
			<output>
				<port id="2" precision="FP16">
					<dim>1</dim>
					<dim>64</dim>
					<dim>44</dim>
					<dim>44</dim>
				</port>
			</output>
		</layer>
		<layer id="123" name="data_add_3068630691/copy_const" type="Const" version="opset1">
			<data element_type="f16" offset="259648" shape="1,64,1,1" size="128"/>
			<output>
				<port id="1" precision="FP16">
					<dim>1</dim>
					<dim>64</dim>
					<dim>1</dim>
					<dim>1</dim>
				</port>
			</output>
		</layer>
		<layer id="124" name="433/variance/Fused_Add_" type="Add" version="opset1">
			<input>
				<port id="0">
					<dim>1</dim>
					<dim>64</dim>
					<dim>44</dim>
					<dim>44</dim>
				</port>
				<port id="1">
					<dim>1</dim>
					<dim>64</dim>
					<dim>1</dim>
					<dim>1</dim>
				</port>
			</input>
			<output>
				<port id="2" precision="FP16">
					<dim>1</dim>
					<dim>64</dim>
					<dim>44</dim>
					<dim>44</dim>
				</port>
			</output>
		</layer>
		<layer id="125" name="434" type="Add" version="opset1">
			<input>
				<port id="0">
					<dim>1</dim>
					<dim>64</dim>
					<dim>44</dim>
					<dim>44</dim>
				</port>
				<port id="1">
					<dim>1</dim>
					<dim>64</dim>
					<dim>44</dim>
					<dim>44</dim>
				</port>
			</input>
			<output>
				<port id="2" precision="FP16">
					<dim>1</dim>
					<dim>64</dim>
					<dim>44</dim>
					<dim>44</dim>
				</port>
			</output>
		</layer>
		<layer id="126" name="436/mean/Fused_Mul_3303133033_const" type="Const" version="opset1">
			<data element_type="f16" offset="259776" shape="384,64,1,1" size="49152"/>
			<output>
				<port id="1" precision="FP16">
					<dim>384</dim>
					<dim>64</dim>
					<dim>1</dim>
					<dim>1</dim>
				</port>
			</output>
		</layer>
		<layer id="127" name="435" type="Convolution" version="opset1">
			<data dilations="1,1" output_padding="0,0" pads_begin="0,0" pads_end="0,0" strides="1,1"/>
			<input>
				<port id="0">
					<dim>1</dim>
					<dim>64</dim>
					<dim>44</dim>
					<dim>44</dim>
				</port>
				<port id="1">
					<dim>384</dim>
					<dim>64</dim>
					<dim>1</dim>
					<dim>1</dim>
				</port>
			</input>
			<output>
				<port id="2" precision="FP16">
					<dim>1</dim>
					<dim>384</dim>
					<dim>44</dim>
					<dim>44</dim>
				</port>
			</output>
		</layer>
		<layer id="128" name="data_add_3069430699/copy_const" type="Const" version="opset1">
			<data element_type="f16" offset="308928" shape="1,384,1,1" size="768"/>
			<output>
				<port id="1" precision="FP16">
					<dim>1</dim>
					<dim>384</dim>
					<dim>1</dim>
					<dim>1</dim>
				</port>
			</output>
		</layer>
		<layer id="129" name="436/variance/Fused_Add_" type="Add" version="opset1">
			<input>
				<port id="0">
					<dim>1</dim>
					<dim>384</dim>
					<dim>44</dim>
					<dim>44</dim>
				</port>
				<port id="1">
					<dim>1</dim>
					<dim>384</dim>
					<dim>1</dim>
					<dim>1</dim>
				</port>
			</input>
			<output>
				<port id="2" precision="FP16">
					<dim>1</dim>
					<dim>384</dim>
					<dim>44</dim>
					<dim>44</dim>
				</port>
			</output>
		</layer>
		<layer id="130" name="437" type="Clamp" version="opset1">
			<data max="6.0" min="0.0"/>
			<input>
				<port id="0">
					<dim>1</dim>
					<dim>384</dim>
					<dim>44</dim>
					<dim>44</dim>
				</port>
			</input>
			<output>
				<port id="1" precision="FP16">
					<dim>1</dim>
					<dim>384</dim>
					<dim>44</dim>
					<dim>44</dim>
				</port>
			</output>
		</layer>
		<layer id="131" name="6215262155_const" type="Const" version="opset1">
			<data element_type="f16" offset="309696" shape="384,1,1,3,3" size="6912"/>
			<output>
				<port id="1" precision="FP16">
					<dim>384</dim>
					<dim>1</dim>
					<dim>1</dim>
					<dim>3</dim>
					<dim>3</dim>
				</port>
			</output>
		</layer>
		<layer id="132" name="438" type="GroupConvolution" version="opset1">
			<data dilations="1,1" output_padding="0,0" pads_begin="1,1" pads_end="1,1" strides="1,1"/>
			<input>
				<port id="0">
					<dim>1</dim>
					<dim>384</dim>
					<dim>44</dim>
					<dim>44</dim>
				</port>
				<port id="1">
					<dim>384</dim>
					<dim>1</dim>
					<dim>1</dim>
					<dim>3</dim>
					<dim>3</dim>
				</port>
			</input>
			<output>
				<port id="2" precision="FP16">
					<dim>1</dim>
					<dim>384</dim>
					<dim>44</dim>
					<dim>44</dim>
				</port>
			</output>
		</layer>
		<layer id="133" name="data_add_3070230707/copy_const" type="Const" version="opset1">
			<data element_type="f16" offset="316608" shape="1,384,1,1" size="768"/>
			<output>
				<port id="1" precision="FP16">
					<dim>1</dim>
					<dim>384</dim>
					<dim>1</dim>
					<dim>1</dim>
				</port>
			</output>
		</layer>
		<layer id="134" name="439/variance/Fused_Add_" type="Add" version="opset1">
			<input>
				<port id="0">
					<dim>1</dim>
					<dim>384</dim>
					<dim>44</dim>
					<dim>44</dim>
				</port>
				<port id="1">
					<dim>1</dim>
					<dim>384</dim>
					<dim>1</dim>
					<dim>1</dim>
				</port>
			</input>
			<output>
				<port id="2" precision="FP16">
					<dim>1</dim>
					<dim>384</dim>
					<dim>44</dim>
					<dim>44</dim>
				</port>
			</output>
		</layer>
		<layer id="135" name="440" type="Clamp" version="opset1">
			<data max="6.0" min="0.0"/>
			<input>
				<port id="0">
					<dim>1</dim>
					<dim>384</dim>
					<dim>44</dim>
					<dim>44</dim>
				</port>
			</input>
			<output>
				<port id="1" precision="FP16">
					<dim>1</dim>
					<dim>384</dim>
					<dim>44</dim>
					<dim>44</dim>
				</port>
			</output>
		</layer>
		<layer id="136" name="442/mean/Fused_Mul_3303933041_const" type="Const" version="opset1">
			<data element_type="f16" offset="317376" shape="64,384,1,1" size="49152"/>
			<output>
				<port id="1" precision="FP16">
					<dim>64</dim>
					<dim>384</dim>
					<dim>1</dim>
					<dim>1</dim>
				</port>
			</output>
		</layer>
		<layer id="137" name="441" type="Convolution" version="opset1">
			<data dilations="1,1" output_padding="0,0" pads_begin="0,0" pads_end="0,0" strides="1,1"/>
			<input>
				<port id="0">
					<dim>1</dim>
					<dim>384</dim>
					<dim>44</dim>
					<dim>44</dim>
				</port>
				<port id="1">
					<dim>64</dim>
					<dim>384</dim>
					<dim>1</dim>
					<dim>1</dim>
				</port>
			</input>
			<output>
				<port id="2" precision="FP16">
					<dim>1</dim>
					<dim>64</dim>
					<dim>44</dim>
					<dim>44</dim>
				</port>
			</output>
		</layer>
		<layer id="138" name="data_add_3071030715/copy_const" type="Const" version="opset1">
			<data element_type="f16" offset="366528" shape="1,64,1,1" size="128"/>
			<output>
				<port id="1" precision="FP16">
					<dim>1</dim>
					<dim>64</dim>
					<dim>1</dim>
					<dim>1</dim>
				</port>
			</output>
		</layer>
		<layer id="139" name="442/variance/Fused_Add_" type="Add" version="opset1">
			<input>
				<port id="0">
					<dim>1</dim>
					<dim>64</dim>
					<dim>44</dim>
					<dim>44</dim>
				</port>
				<port id="1">
					<dim>1</dim>
					<dim>64</dim>
					<dim>1</dim>
					<dim>1</dim>
				</port>
			</input>
			<output>
				<port id="2" precision="FP16">
					<dim>1</dim>
					<dim>64</dim>
					<dim>44</dim>
					<dim>44</dim>
				</port>
			</output>
		</layer>
		<layer id="140" name="443" type="Add" version="opset1">
			<input>
				<port id="0">
					<dim>1</dim>
					<dim>64</dim>
					<dim>44</dim>
					<dim>44</dim>
				</port>
				<port id="1">
					<dim>1</dim>
					<dim>64</dim>
					<dim>44</dim>
					<dim>44</dim>
				</port>
			</input>
			<output>
				<port id="2" precision="FP16">
					<dim>1</dim>
					<dim>64</dim>
					<dim>44</dim>
					<dim>44</dim>
				</port>
			</output>
		</layer>
		<layer id="141" name="445/mean/Fused_Mul_3304333045_const" type="Const" version="opset1">
			<data element_type="f16" offset="366656" shape="384,64,1,1" size="49152"/>
			<output>
				<port id="1" precision="FP16">
					<dim>384</dim>
					<dim>64</dim>
					<dim>1</dim>
					<dim>1</dim>
				</port>
			</output>
		</layer>
		<layer id="142" name="444" type="Convolution" version="opset1">
			<data dilations="1,1" output_padding="0,0" pads_begin="0,0" pads_end="0,0" strides="1,1"/>
			<input>
				<port id="0">
					<dim>1</dim>
					<dim>64</dim>
					<dim>44</dim>
					<dim>44</dim>
				</port>
				<port id="1">
					<dim>384</dim>
					<dim>64</dim>
					<dim>1</dim>
					<dim>1</dim>
				</port>
			</input>
			<output>
				<port id="2" precision="FP16">
					<dim>1</dim>
					<dim>384</dim>
					<dim>44</dim>
					<dim>44</dim>
				</port>
			</output>
		</layer>
		<layer id="143" name="data_add_3071830723/copy_const" type="Const" version="opset1">
			<data element_type="f16" offset="415808" shape="1,384,1,1" size="768"/>
			<output>
				<port id="1" precision="FP16">
					<dim>1</dim>
					<dim>384</dim>
					<dim>1</dim>
					<dim>1</dim>
				</port>
			</output>
		</layer>
		<layer id="144" name="445/variance/Fused_Add_" type="Add" version="opset1">
			<input>
				<port id="0">
					<dim>1</dim>
					<dim>384</dim>
					<dim>44</dim>
					<dim>44</dim>
				</port>
				<port id="1">
					<dim>1</dim>
					<dim>384</dim>
					<dim>1</dim>
					<dim>1</dim>
				</port>
			</input>
			<output>
				<port id="2" precision="FP16">
					<dim>1</dim>
					<dim>384</dim>
					<dim>44</dim>
					<dim>44</dim>
				</port>
			</output>
		</layer>
		<layer id="145" name="446" type="Clamp" version="opset1">
			<data max="6.0" min="0.0"/>
			<input>
				<port id="0">
					<dim>1</dim>
					<dim>384</dim>
					<dim>44</dim>
					<dim>44</dim>
				</port>
			</input>
			<output>
				<port id="1" precision="FP16">
					<dim>1</dim>
					<dim>384</dim>
					<dim>44</dim>
					<dim>44</dim>
				</port>
			</output>
		</layer>
		<layer id="146" name="6214062143_const" type="Const" version="opset1">
			<data element_type="f16" offset="416576" shape="384,1,1,3,3" size="6912"/>
			<output>
				<port id="1" precision="FP16">
					<dim>384</dim>
					<dim>1</dim>
					<dim>1</dim>
					<dim>3</dim>
					<dim>3</dim>
				</port>
			</output>
		</layer>
		<layer id="147" name="447" type="GroupConvolution" version="opset1">
			<data dilations="1,1" output_padding="0,0" pads_begin="1,1" pads_end="1,1" strides="1,1"/>
			<input>
				<port id="0">
					<dim>1</dim>
					<dim>384</dim>
					<dim>44</dim>
					<dim>44</dim>
				</port>
				<port id="1">
					<dim>384</dim>
					<dim>1</dim>
					<dim>1</dim>
					<dim>3</dim>
					<dim>3</dim>
				</port>
			</input>
			<output>
				<port id="2" precision="FP16">
					<dim>1</dim>
					<dim>384</dim>
					<dim>44</dim>
					<dim>44</dim>
				</port>
			</output>
		</layer>
		<layer id="148" name="data_add_3072630731/copy_const" type="Const" version="opset1">
			<data element_type="f16" offset="423488" shape="1,384,1,1" size="768"/>
			<output>
				<port id="1" precision="FP16">
					<dim>1</dim>
					<dim>384</dim>
					<dim>1</dim>
					<dim>1</dim>
				</port>
			</output>
		</layer>
		<layer id="149" name="448/variance/Fused_Add_" type="Add" version="opset1">
			<input>
				<port id="0">
					<dim>1</dim>
					<dim>384</dim>
					<dim>44</dim>
					<dim>44</dim>
				</port>
				<port id="1">
					<dim>1</dim>
					<dim>384</dim>
					<dim>1</dim>
					<dim>1</dim>
				</port>
			</input>
			<output>
				<port id="2" precision="FP16">
					<dim>1</dim>
					<dim>384</dim>
					<dim>44</dim>
					<dim>44</dim>
				</port>
			</output>
		</layer>
		<layer id="150" name="449" type="Clamp" version="opset1">
			<data max="6.0" min="0.0"/>
			<input>
				<port id="0">
					<dim>1</dim>
					<dim>384</dim>
					<dim>44</dim>
					<dim>44</dim>
				</port>
			</input>
			<output>
				<port id="1" precision="FP16">
					<dim>1</dim>
					<dim>384</dim>
					<dim>44</dim>
					<dim>44</dim>
				</port>
			</output>
		</layer>
		<layer id="151" name="451/mean/Fused_Mul_3305133053_const" type="Const" version="opset1">
			<data element_type="f16" offset="424256" shape="64,384,1,1" size="49152"/>
			<output>
				<port id="1" precision="FP16">
					<dim>64</dim>
					<dim>384</dim>
					<dim>1</dim>
					<dim>1</dim>
				</port>
			</output>
		</layer>
		<layer id="152" name="450" type="Convolution" version="opset1">
			<data dilations="1,1" output_padding="0,0" pads_begin="0,0" pads_end="0,0" strides="1,1"/>
			<input>
				<port id="0">
					<dim>1</dim>
					<dim>384</dim>
					<dim>44</dim>
					<dim>44</dim>
				</port>
				<port id="1">
					<dim>64</dim>
					<dim>384</dim>
					<dim>1</dim>
					<dim>1</dim>
				</port>
			</input>
			<output>
				<port id="2" precision="FP16">
					<dim>1</dim>
					<dim>64</dim>
					<dim>44</dim>
					<dim>44</dim>
				</port>
			</output>
		</layer>
		<layer id="153" name="data_add_3073430739/copy_const" type="Const" version="opset1">
			<data element_type="f16" offset="473408" shape="1,64,1,1" size="128"/>
			<output>
				<port id="1" precision="FP16">
					<dim>1</dim>
					<dim>64</dim>
					<dim>1</dim>
					<dim>1</dim>
				</port>
			</output>
		</layer>
		<layer id="154" name="451/variance/Fused_Add_" type="Add" version="opset1">
			<input>
				<port id="0">
					<dim>1</dim>
					<dim>64</dim>
					<dim>44</dim>
					<dim>44</dim>
				</port>
				<port id="1">
					<dim>1</dim>
					<dim>64</dim>
					<dim>1</dim>
					<dim>1</dim>
				</port>
			</input>
			<output>
				<port id="2" precision="FP16">
					<dim>1</dim>
					<dim>64</dim>
					<dim>44</dim>
					<dim>44</dim>
				</port>
			</output>
		</layer>
		<layer id="155" name="452" type="Add" version="opset1">
			<input>
				<port id="0">
					<dim>1</dim>
					<dim>64</dim>
					<dim>44</dim>
					<dim>44</dim>
				</port>
				<port id="1">
					<dim>1</dim>
					<dim>64</dim>
					<dim>44</dim>
					<dim>44</dim>
				</port>
			</input>
			<output>
				<port id="2" precision="FP16">
					<dim>1</dim>
					<dim>64</dim>
					<dim>44</dim>
					<dim>44</dim>
				</port>
			</output>
		</layer>
		<layer id="156" name="454/mean/Fused_Mul_3305533057_const" type="Const" version="opset1">
			<data element_type="f16" offset="473536" shape="384,64,1,1" size="49152"/>
			<output>
				<port id="1" precision="FP16">
					<dim>384</dim>
					<dim>64</dim>
					<dim>1</dim>
					<dim>1</dim>
				</port>
			</output>
		</layer>
		<layer id="157" name="453" type="Convolution" version="opset1">
			<data dilations="1,1" output_padding="0,0" pads_begin="0,0" pads_end="0,0" strides="1,1"/>
			<input>
				<port id="0">
					<dim>1</dim>
					<dim>64</dim>
					<dim>44</dim>
					<dim>44</dim>
				</port>
				<port id="1">
					<dim>384</dim>
					<dim>64</dim>
					<dim>1</dim>
					<dim>1</dim>
				</port>
			</input>
			<output>
				<port id="2" precision="FP16">
					<dim>1</dim>
					<dim>384</dim>
					<dim>44</dim>
					<dim>44</dim>
				</port>
			</output>
		</layer>
		<layer id="158" name="data_add_3074230747/copy_const" type="Const" version="opset1">
			<data element_type="f16" offset="522688" shape="1,384,1,1" size="768"/>
			<output>
				<port id="1" precision="FP16">
					<dim>1</dim>
					<dim>384</dim>
					<dim>1</dim>
					<dim>1</dim>
				</port>
			</output>
		</layer>
		<layer id="159" name="454/variance/Fused_Add_" type="Add" version="opset1">
			<input>
				<port id="0">
					<dim>1</dim>
					<dim>384</dim>
					<dim>44</dim>
					<dim>44</dim>
				</port>
				<port id="1">
					<dim>1</dim>
					<dim>384</dim>
					<dim>1</dim>
					<dim>1</dim>
				</port>
			</input>
			<output>
				<port id="2" precision="FP16">
					<dim>1</dim>
					<dim>384</dim>
					<dim>44</dim>
					<dim>44</dim>
				</port>
			</output>
		</layer>
		<layer id="160" name="455" type="Clamp" version="opset1">
			<data max="6.0" min="0.0"/>
			<input>
				<port id="0">
					<dim>1</dim>
					<dim>384</dim>
					<dim>44</dim>
					<dim>44</dim>
				</port>
			</input>
			<output>
				<port id="1" precision="FP16">
					<dim>1</dim>
					<dim>384</dim>
					<dim>44</dim>
					<dim>44</dim>
				</port>
			</output>
		</layer>
		<layer id="161" name="6217262175_const" type="Const" version="opset1">
			<data element_type="f16" offset="523456" shape="384,1,1,3,3" size="6912"/>
			<output>
				<port id="1" precision="FP16">
					<dim>384</dim>
					<dim>1</dim>
					<dim>1</dim>
					<dim>3</dim>
					<dim>3</dim>
				</port>
			</output>
		</layer>
		<layer id="162" name="456" type="GroupConvolution" version="opset1">
			<data dilations="1,1" output_padding="0,0" pads_begin="1,1" pads_end="1,1" strides="1,1"/>
			<input>
				<port id="0">
					<dim>1</dim>
					<dim>384</dim>
					<dim>44</dim>
					<dim>44</dim>
				</port>
				<port id="1">
					<dim>384</dim>
					<dim>1</dim>
					<dim>1</dim>
					<dim>3</dim>
					<dim>3</dim>
				</port>
			</input>
			<output>
				<port id="2" precision="FP16">
					<dim>1</dim>
					<dim>384</dim>
					<dim>44</dim>
					<dim>44</dim>
				</port>
			</output>
		</layer>
		<layer id="163" name="data_add_3075030755/copy_const" type="Const" version="opset1">
			<data element_type="f16" offset="530368" shape="1,384,1,1" size="768"/>
			<output>
				<port id="1" precision="FP16">
					<dim>1</dim>
					<dim>384</dim>
					<dim>1</dim>
					<dim>1</dim>
				</port>
			</output>
		</layer>
		<layer id="164" name="457/variance/Fused_Add_" type="Add" version="opset1">
			<input>
				<port id="0">
					<dim>1</dim>
					<dim>384</dim>
					<dim>44</dim>
					<dim>44</dim>
				</port>
				<port id="1">
					<dim>1</dim>
					<dim>384</dim>
					<dim>1</dim>
					<dim>1</dim>
				</port>
			</input>
			<output>
				<port id="2" precision="FP16">
					<dim>1</dim>
					<dim>384</dim>
					<dim>44</dim>
					<dim>44</dim>
				</port>
			</output>
		</layer>
		<layer id="165" name="458" type="Clamp" version="opset1">
			<data max="6.0" min="0.0"/>
			<input>
				<port id="0">
					<dim>1</dim>
					<dim>384</dim>
					<dim>44</dim>
					<dim>44</dim>
				</port>
			</input>
			<output>
				<port id="1" precision="FP16">
					<dim>1</dim>
					<dim>384</dim>
					<dim>44</dim>
					<dim>44</dim>
				</port>
			</output>
		</layer>
		<layer id="166" name="460/mean/Fused_Mul_3306333065_const" type="Const" version="opset1">
			<data element_type="f16" offset="531136" shape="96,384,1,1" size="73728"/>
			<output>
				<port id="1" precision="FP16">
					<dim>96</dim>
					<dim>384</dim>
					<dim>1</dim>
					<dim>1</dim>
				</port>
			</output>
		</layer>
		<layer id="167" name="459" type="Convolution" version="opset1">
			<data dilations="1,1" output_padding="0,0" pads_begin="0,0" pads_end="0,0" strides="1,1"/>
			<input>
				<port id="0">
					<dim>1</dim>
					<dim>384</dim>
					<dim>44</dim>
					<dim>44</dim>
				</port>
				<port id="1">
					<dim>96</dim>
					<dim>384</dim>
					<dim>1</dim>
					<dim>1</dim>
				</port>
			</input>
			<output>
				<port id="2" precision="FP16">
					<dim>1</dim>
					<dim>96</dim>
					<dim>44</dim>
					<dim>44</dim>
				</port>
			</output>
		</layer>
		<layer id="168" name="data_add_3075830763/copy_const" type="Const" version="opset1">
			<data element_type="f16" offset="604864" shape="1,96,1,1" size="192"/>
			<output>
				<port id="1" precision="FP16">
					<dim>1</dim>
					<dim>96</dim>
					<dim>1</dim>
					<dim>1</dim>
				</port>
			</output>
		</layer>
		<layer id="169" name="460/variance/Fused_Add_" type="Add" version="opset1">
			<input>
				<port id="0">
					<dim>1</dim>
					<dim>96</dim>
					<dim>44</dim>
					<dim>44</dim>
				</port>
				<port id="1">
					<dim>1</dim>
					<dim>96</dim>
					<dim>1</dim>
					<dim>1</dim>
				</port>
			</input>
			<output>
				<port id="2" precision="FP16">
					<dim>1</dim>
					<dim>96</dim>
					<dim>44</dim>
					<dim>44</dim>
				</port>
			</output>
		</layer>
		<layer id="170" name="462/mean/Fused_Mul_3306733069_const" type="Const" version="opset1">
			<data element_type="f16" offset="605056" shape="576,96,1,1" size="110592"/>
			<output>
				<port id="1" precision="FP16">
					<dim>576</dim>
					<dim>96</dim>
					<dim>1</dim>
					<dim>1</dim>
				</port>
			</output>
		</layer>
		<layer id="171" name="461" type="Convolution" version="opset1">
			<data dilations="1,1" output_padding="0,0" pads_begin="0,0" pads_end="0,0" strides="1,1"/>
			<input>
				<port id="0">
					<dim>1</dim>
					<dim>96</dim>
					<dim>44</dim>
					<dim>44</dim>
				</port>
				<port id="1">
					<dim>576</dim>
					<dim>96</dim>
					<dim>1</dim>
					<dim>1</dim>
				</port>
			</input>
			<output>
				<port id="2" precision="FP16">
					<dim>1</dim>
					<dim>576</dim>
					<dim>44</dim>
					<dim>44</dim>
				</port>
			</output>
		</layer>
		<layer id="172" name="data_add_3076630771/copy_const" type="Const" version="opset1">
			<data element_type="f16" offset="715648" shape="1,576,1,1" size="1152"/>
			<output>
				<port id="1" precision="FP16">
					<dim>1</dim>
					<dim>576</dim>
					<dim>1</dim>
					<dim>1</dim>
				</port>
			</output>
		</layer>
		<layer id="173" name="462/variance/Fused_Add_" type="Add" version="opset1">
			<input>
				<port id="0">
					<dim>1</dim>
					<dim>576</dim>
					<dim>44</dim>
					<dim>44</dim>
				</port>
				<port id="1">
					<dim>1</dim>
					<dim>576</dim>
					<dim>1</dim>
					<dim>1</dim>
				</port>
			</input>
			<output>
				<port id="2" precision="FP16">
					<dim>1</dim>
					<dim>576</dim>
					<dim>44</dim>
					<dim>44</dim>
				</port>
			</output>
		</layer>
		<layer id="174" name="463" type="Clamp" version="opset1">
			<data max="6.0" min="0.0"/>
			<input>
				<port id="0">
					<dim>1</dim>
					<dim>576</dim>
					<dim>44</dim>
					<dim>44</dim>
				</port>
			</input>
			<output>
				<port id="1" precision="FP16">
					<dim>1</dim>
					<dim>576</dim>
					<dim>44</dim>
					<dim>44</dim>
				</port>
			</output>
		</layer>
		<layer id="175" name="6216062163_const" type="Const" version="opset1">
			<data element_type="f16" offset="716800" shape="576,1,1,3,3" size="10368"/>
			<output>
				<port id="1" precision="FP16">
					<dim>576</dim>
					<dim>1</dim>
					<dim>1</dim>
					<dim>3</dim>
					<dim>3</dim>
				</port>
			</output>
		</layer>
		<layer id="176" name="464" type="GroupConvolution" version="opset1">
			<data dilations="1,1" output_padding="0,0" pads_begin="1,1" pads_end="1,1" strides="1,1"/>
			<input>
				<port id="0">
					<dim>1</dim>
					<dim>576</dim>
					<dim>44</dim>
					<dim>44</dim>
				</port>
				<port id="1">
					<dim>576</dim>
					<dim>1</dim>
					<dim>1</dim>
					<dim>3</dim>
					<dim>3</dim>
				</port>
			</input>
			<output>
				<port id="2" precision="FP16">
					<dim>1</dim>
					<dim>576</dim>
					<dim>44</dim>
					<dim>44</dim>
				</port>
			</output>
		</layer>
		<layer id="177" name="data_add_3077430779/copy_const" type="Const" version="opset1">
			<data element_type="f16" offset="727168" shape="1,576,1,1" size="1152"/>
			<output>
				<port id="1" precision="FP16">
					<dim>1</dim>
					<dim>576</dim>
					<dim>1</dim>
					<dim>1</dim>
				</port>
			</output>
		</layer>
		<layer id="178" name="465/variance/Fused_Add_" type="Add" version="opset1">
			<input>
				<port id="0">
					<dim>1</dim>
					<dim>576</dim>
					<dim>44</dim>
					<dim>44</dim>
				</port>
				<port id="1">
					<dim>1</dim>
					<dim>576</dim>
					<dim>1</dim>
					<dim>1</dim>
				</port>
			</input>
			<output>
				<port id="2" precision="FP16">
					<dim>1</dim>
					<dim>576</dim>
					<dim>44</dim>
					<dim>44</dim>
				</port>
			</output>
		</layer>
		<layer id="179" name="466" type="Clamp" version="opset1">
			<data max="6.0" min="0.0"/>
			<input>
				<port id="0">
					<dim>1</dim>
					<dim>576</dim>
					<dim>44</dim>
					<dim>44</dim>
				</port>
			</input>
			<output>
				<port id="1" precision="FP16">
					<dim>1</dim>
					<dim>576</dim>
					<dim>44</dim>
					<dim>44</dim>
				</port>
			</output>
		</layer>
		<layer id="180" name="468/mean/Fused_Mul_3307533077_const" type="Const" version="opset1">
			<data element_type="f16" offset="728320" shape="96,576,1,1" size="110592"/>
			<output>
				<port id="1" precision="FP16">
					<dim>96</dim>
					<dim>576</dim>
					<dim>1</dim>
					<dim>1</dim>
				</port>
			</output>
		</layer>
		<layer id="181" name="467" type="Convolution" version="opset1">
			<data dilations="1,1" output_padding="0,0" pads_begin="0,0" pads_end="0,0" strides="1,1"/>
			<input>
				<port id="0">
					<dim>1</dim>
					<dim>576</dim>
					<dim>44</dim>
					<dim>44</dim>
				</port>
				<port id="1">
					<dim>96</dim>
					<dim>576</dim>
					<dim>1</dim>
					<dim>1</dim>
				</port>
			</input>
			<output>
				<port id="2" precision="FP16">
					<dim>1</dim>
					<dim>96</dim>
					<dim>44</dim>
					<dim>44</dim>
				</port>
			</output>
		</layer>
		<layer id="182" name="data_add_3078230787/copy_const" type="Const" version="opset1">
			<data element_type="f16" offset="838912" shape="1,96,1,1" size="192"/>
			<output>
				<port id="1" precision="FP16">
					<dim>1</dim>
					<dim>96</dim>
					<dim>1</dim>
					<dim>1</dim>
				</port>
			</output>
		</layer>
		<layer id="183" name="468/variance/Fused_Add_" type="Add" version="opset1">
			<input>
				<port id="0">
					<dim>1</dim>
					<dim>96</dim>
					<dim>44</dim>
					<dim>44</dim>
				</port>
				<port id="1">
					<dim>1</dim>
					<dim>96</dim>
					<dim>1</dim>
					<dim>1</dim>
				</port>
			</input>
			<output>
				<port id="2" precision="FP16">
					<dim>1</dim>
					<dim>96</dim>
					<dim>44</dim>
					<dim>44</dim>
				</port>
			</output>
		</layer>
		<layer id="184" name="469" type="Add" version="opset1">
			<input>
				<port id="0">
					<dim>1</dim>
					<dim>96</dim>
					<dim>44</dim>
					<dim>44</dim>
				</port>
				<port id="1">
					<dim>1</dim>
					<dim>96</dim>
					<dim>44</dim>
					<dim>44</dim>
				</port>
			</input>
			<output>
				<port id="2" precision="FP16">
					<dim>1</dim>
					<dim>96</dim>
					<dim>44</dim>
					<dim>44</dim>
				</port>
			</output>
		</layer>
		<layer id="185" name="471/mean/Fused_Mul_3307933081_const" type="Const" version="opset1">
			<data element_type="f16" offset="839104" shape="576,96,1,1" size="110592"/>
			<output>
				<port id="1" precision="FP16">
					<dim>576</dim>
					<dim>96</dim>
					<dim>1</dim>
					<dim>1</dim>
				</port>
			</output>
		</layer>
		<layer id="186" name="470" type="Convolution" version="opset1">
			<data dilations="1,1" output_padding="0,0" pads_begin="0,0" pads_end="0,0" strides="1,1"/>
			<input>
				<port id="0">
					<dim>1</dim>
					<dim>96</dim>
					<dim>44</dim>
					<dim>44</dim>
				</port>
				<port id="1">
					<dim>576</dim>
					<dim>96</dim>
					<dim>1</dim>
					<dim>1</dim>
				</port>
			</input>
			<output>
				<port id="2" precision="FP16">
					<dim>1</dim>
					<dim>576</dim>
					<dim>44</dim>
					<dim>44</dim>
				</port>
			</output>
		</layer>
		<layer id="187" name="data_add_3079030795/copy_const" type="Const" version="opset1">
			<data element_type="f16" offset="949696" shape="1,576,1,1" size="1152"/>
			<output>
				<port id="1" precision="FP16">
					<dim>1</dim>
					<dim>576</dim>
					<dim>1</dim>
					<dim>1</dim>
				</port>
			</output>
		</layer>
		<layer id="188" name="471/variance/Fused_Add_" type="Add" version="opset1">
			<input>
				<port id="0">
					<dim>1</dim>
					<dim>576</dim>
					<dim>44</dim>
					<dim>44</dim>
				</port>
				<port id="1">
					<dim>1</dim>
					<dim>576</dim>
					<dim>1</dim>
					<dim>1</dim>
				</port>
			</input>
			<output>
				<port id="2" precision="FP16">
					<dim>1</dim>
					<dim>576</dim>
					<dim>44</dim>
					<dim>44</dim>
				</port>
			</output>
		</layer>
		<layer id="189" name="472" type="Clamp" version="opset1">
			<data max="6.0" min="0.0"/>
			<input>
				<port id="0">
					<dim>1</dim>
					<dim>576</dim>
					<dim>44</dim>
					<dim>44</dim>
				</port>
			</input>
			<output>
				<port id="1" precision="FP16">
					<dim>1</dim>
					<dim>576</dim>
					<dim>44</dim>
					<dim>44</dim>
				</port>
			</output>
		</layer>
		<layer id="190" name="6211262115_const" type="Const" version="opset1">
			<data element_type="f16" offset="950848" shape="576,1,1,3,3" size="10368"/>
			<output>
				<port id="1" precision="FP16">
					<dim>576</dim>
					<dim>1</dim>
					<dim>1</dim>
					<dim>3</dim>
					<dim>3</dim>
				</port>
			</output>
		</layer>
		<layer id="191" name="473" type="GroupConvolution" version="opset1">
			<data dilations="1,1" output_padding="0,0" pads_begin="1,1" pads_end="1,1" strides="1,1"/>
			<input>
				<port id="0">
					<dim>1</dim>
					<dim>576</dim>
					<dim>44</dim>
					<dim>44</dim>
				</port>
				<port id="1">
					<dim>576</dim>
					<dim>1</dim>
					<dim>1</dim>
					<dim>3</dim>
					<dim>3</dim>
				</port>
			</input>
			<output>
				<port id="2" precision="FP16">
					<dim>1</dim>
					<dim>576</dim>
					<dim>44</dim>
					<dim>44</dim>
				</port>
			</output>
		</layer>
		<layer id="192" name="data_add_3079830803/copy_const" type="Const" version="opset1">
			<data element_type="f16" offset="961216" shape="1,576,1,1" size="1152"/>
			<output>
				<port id="1" precision="FP16">
					<dim>1</dim>
					<dim>576</dim>
					<dim>1</dim>
					<dim>1</dim>
				</port>
			</output>
		</layer>
		<layer id="193" name="474/variance/Fused_Add_" type="Add" version="opset1">
			<input>
				<port id="0">
					<dim>1</dim>
					<dim>576</dim>
					<dim>44</dim>
					<dim>44</dim>
				</port>
				<port id="1">
					<dim>1</dim>
					<dim>576</dim>
					<dim>1</dim>
					<dim>1</dim>
				</port>
			</input>
			<output>
				<port id="2" precision="FP16">
					<dim>1</dim>
					<dim>576</dim>
					<dim>44</dim>
					<dim>44</dim>
				</port>
			</output>
		</layer>
		<layer id="194" name="475" type="Clamp" version="opset1">
			<data max="6.0" min="0.0"/>
			<input>
				<port id="0">
					<dim>1</dim>
					<dim>576</dim>
					<dim>44</dim>
					<dim>44</dim>
				</port>
			</input>
			<output>
				<port id="1" precision="FP16">
					<dim>1</dim>
					<dim>576</dim>
					<dim>44</dim>
					<dim>44</dim>
				</port>
			</output>
		</layer>
		<layer id="195" name="477/mean/Fused_Mul_3308733089_const" type="Const" version="opset1">
			<data element_type="f16" offset="962368" shape="96,576,1,1" size="110592"/>
			<output>
				<port id="1" precision="FP16">
					<dim>96</dim>
					<dim>576</dim>
					<dim>1</dim>
					<dim>1</dim>
				</port>
			</output>
		</layer>
		<layer id="196" name="476" type="Convolution" version="opset1">
			<data dilations="1,1" output_padding="0,0" pads_begin="0,0" pads_end="0,0" strides="1,1"/>
			<input>
				<port id="0">
					<dim>1</dim>
					<dim>576</dim>
					<dim>44</dim>
					<dim>44</dim>
				</port>
				<port id="1">
					<dim>96</dim>
					<dim>576</dim>
					<dim>1</dim>
					<dim>1</dim>
				</port>
			</input>
			<output>
				<port id="2" precision="FP16">
					<dim>1</dim>
					<dim>96</dim>
					<dim>44</dim>
					<dim>44</dim>
				</port>
			</output>
		</layer>
		<layer id="197" name="data_add_3080630811/copy_const" type="Const" version="opset1">
			<data element_type="f16" offset="1072960" shape="1,96,1,1" size="192"/>
			<output>
				<port id="1" precision="FP16">
					<dim>1</dim>
					<dim>96</dim>
					<dim>1</dim>
					<dim>1</dim>
				</port>
			</output>
		</layer>
		<layer id="198" name="477/variance/Fused_Add_" type="Add" version="opset1">
			<input>
				<port id="0">
					<dim>1</dim>
					<dim>96</dim>
					<dim>44</dim>
					<dim>44</dim>
				</port>
				<port id="1">
					<dim>1</dim>
					<dim>96</dim>
					<dim>1</dim>
					<dim>1</dim>
				</port>
			</input>
			<output>
				<port id="2" precision="FP16">
					<dim>1</dim>
					<dim>96</dim>
					<dim>44</dim>
					<dim>44</dim>
				</port>
			</output>
		</layer>
		<layer id="199" name="478" type="Add" version="opset1">
			<input>
				<port id="0">
					<dim>1</dim>
					<dim>96</dim>
					<dim>44</dim>
					<dim>44</dim>
				</port>
				<port id="1">
					<dim>1</dim>
					<dim>96</dim>
					<dim>44</dim>
					<dim>44</dim>
				</port>
			</input>
			<output>
				<port id="2" precision="FP16">
					<dim>1</dim>
					<dim>96</dim>
					<dim>44</dim>
					<dim>44</dim>
				</port>
			</output>
		</layer>
		<layer id="200" name="onnx_initializer_node_neck.lateral_convs.1.conv.weight/Output_0/Data__const" type="Const" version="opset1">
			<data element_type="f16" offset="1073152" shape="32,96,1,1" size="6144"/>
			<output>
				<port id="1" precision="FP16">
					<dim>32</dim>
					<dim>96</dim>
					<dim>1</dim>
					<dim>1</dim>
				</port>
			</output>
		</layer>
		<layer id="201" name="514/WithoutBiases" type="Convolution" version="opset1">
			<data dilations="1,1" output_padding="0,0" pads_begin="0,0" pads_end="0,0" strides="1,1"/>
			<input>
				<port id="0">
					<dim>1</dim>
					<dim>96</dim>
					<dim>44</dim>
					<dim>44</dim>
				</port>
				<port id="1">
					<dim>32</dim>
					<dim>96</dim>
					<dim>1</dim>
					<dim>1</dim>
				</port>
			</input>
			<output>
				<port id="2" precision="FP16">
					<dim>1</dim>
					<dim>32</dim>
					<dim>44</dim>
					<dim>44</dim>
				</port>
			</output>
		</layer>
		<layer id="202" name="514/Dims18934/copy_const" type="Const" version="opset1">
			<data element_type="f16" offset="1079296" shape="1,32,1,1" size="64"/>
			<output>
				<port id="1" precision="FP16">
					<dim>1</dim>
					<dim>32</dim>
					<dim>1</dim>
					<dim>1</dim>
				</port>
			</output>
		</layer>
		<layer id="203" name="514" type="Add" version="opset1">
			<input>
				<port id="0">
					<dim>1</dim>
					<dim>32</dim>
					<dim>44</dim>
					<dim>44</dim>
				</port>
				<port id="1">
					<dim>1</dim>
					<dim>32</dim>
					<dim>1</dim>
					<dim>1</dim>
				</port>
			</input>
			<output>
				<port id="2" precision="FP16">
					<dim>1</dim>
					<dim>32</dim>
					<dim>44</dim>
					<dim>44</dim>
				</port>
			</output>
		</layer>
		<layer id="204" name="480/mean/Fused_Mul_3309133093_const" type="Const" version="opset1">
			<data element_type="f16" offset="1079360" shape="576,96,1,1" size="110592"/>
			<output>
				<port id="1" precision="FP16">
					<dim>576</dim>
					<dim>96</dim>
					<dim>1</dim>
					<dim>1</dim>
				</port>
			</output>
		</layer>
		<layer id="205" name="479" type="Convolution" version="opset1">
			<data dilations="1,1" output_padding="0,0" pads_begin="0,0" pads_end="0,0" strides="1,1"/>
			<input>
				<port id="0">
					<dim>1</dim>
					<dim>96</dim>
					<dim>44</dim>
					<dim>44</dim>
				</port>
				<port id="1">
					<dim>576</dim>
					<dim>96</dim>
					<dim>1</dim>
					<dim>1</dim>
				</port>
			</input>
			<output>
				<port id="2" precision="FP16">
					<dim>1</dim>
					<dim>576</dim>
					<dim>44</dim>
					<dim>44</dim>
				</port>
			</output>
		</layer>
		<layer id="206" name="data_add_3081430819/copy_const" type="Const" version="opset1">
			<data element_type="f16" offset="1189952" shape="1,576,1,1" size="1152"/>
			<output>
				<port id="1" precision="FP16">
					<dim>1</dim>
					<dim>576</dim>
					<dim>1</dim>
					<dim>1</dim>
				</port>
			</output>
		</layer>
		<layer id="207" name="480/variance/Fused_Add_" type="Add" version="opset1">
			<input>
				<port id="0">
					<dim>1</dim>
					<dim>576</dim>
					<dim>44</dim>
					<dim>44</dim>
				</port>
				<port id="1">
					<dim>1</dim>
					<dim>576</dim>
					<dim>1</dim>
					<dim>1</dim>
				</port>
			</input>
			<output>
				<port id="2" precision="FP16">
					<dim>1</dim>
					<dim>576</dim>
					<dim>44</dim>
					<dim>44</dim>
				</port>
			</output>
		</layer>
		<layer id="208" name="481" type="Clamp" version="opset1">
			<data max="6.0" min="0.0"/>
			<input>
				<port id="0">
					<dim>1</dim>
					<dim>576</dim>
					<dim>44</dim>
					<dim>44</dim>
				</port>
			</input>
			<output>
				<port id="1" precision="FP16">
					<dim>1</dim>
					<dim>576</dim>
					<dim>44</dim>
					<dim>44</dim>
				</port>
			</output>
		</layer>
		<layer id="209" name="6216862171_const" type="Const" version="opset1">
			<data element_type="f16" offset="1191104" shape="576,1,1,3,3" size="10368"/>
			<output>
				<port id="1" precision="FP16">
					<dim>576</dim>
					<dim>1</dim>
					<dim>1</dim>
					<dim>3</dim>
					<dim>3</dim>
				</port>
			</output>
		</layer>
		<layer id="210" name="482" type="GroupConvolution" version="opset1">
			<data dilations="1,1" output_padding="0,0" pads_begin="1,1" pads_end="1,1" strides="2,2"/>
			<input>
				<port id="0">
					<dim>1</dim>
					<dim>576</dim>
					<dim>44</dim>
					<dim>44</dim>
				</port>
				<port id="1">
					<dim>576</dim>
					<dim>1</dim>
					<dim>1</dim>
					<dim>3</dim>
					<dim>3</dim>
				</port>
			</input>
			<output>
				<port id="2" precision="FP16">
					<dim>1</dim>
					<dim>576</dim>
					<dim>22</dim>
					<dim>22</dim>
				</port>
			</output>
		</layer>
		<layer id="211" name="data_add_3082230827/copy_const" type="Const" version="opset1">
			<data element_type="f16" offset="1201472" shape="1,576,1,1" size="1152"/>
			<output>
				<port id="1" precision="FP16">
					<dim>1</dim>
					<dim>576</dim>
					<dim>1</dim>
					<dim>1</dim>
				</port>
			</output>
		</layer>
		<layer id="212" name="483/variance/Fused_Add_" type="Add" version="opset1">
			<input>
				<port id="0">
					<dim>1</dim>
					<dim>576</dim>
					<dim>22</dim>
					<dim>22</dim>
				</port>
				<port id="1">
					<dim>1</dim>
					<dim>576</dim>
					<dim>1</dim>
					<dim>1</dim>
				</port>
			</input>
			<output>
				<port id="2" precision="FP16">
					<dim>1</dim>
					<dim>576</dim>
					<dim>22</dim>
					<dim>22</dim>
				</port>
			</output>
		</layer>
		<layer id="213" name="484" type="Clamp" version="opset1">
			<data max="6.0" min="0.0"/>
			<input>
				<port id="0">
					<dim>1</dim>
					<dim>576</dim>
					<dim>22</dim>
					<dim>22</dim>
				</port>
			</input>
			<output>
				<port id="1" precision="FP16">
					<dim>1</dim>
					<dim>576</dim>
					<dim>22</dim>
					<dim>22</dim>
				</port>
			</output>
		</layer>
		<layer id="214" name="486/mean/Fused_Mul_3309933101_const" type="Const" version="opset1">
			<data element_type="f16" offset="1202624" shape="160,576,1,1" size="184320"/>
			<output>
				<port id="1" precision="FP16">
					<dim>160</dim>
					<dim>576</dim>
					<dim>1</dim>
					<dim>1</dim>
				</port>
			</output>
		</layer>
		<layer id="215" name="485" type="Convolution" version="opset1">
			<data dilations="1,1" output_padding="0,0" pads_begin="0,0" pads_end="0,0" strides="1,1"/>
			<input>
				<port id="0">
					<dim>1</dim>
					<dim>576</dim>
					<dim>22</dim>
					<dim>22</dim>
				</port>
				<port id="1">
					<dim>160</dim>
					<dim>576</dim>
					<dim>1</dim>
					<dim>1</dim>
				</port>
			</input>
			<output>
				<port id="2" precision="FP16">
					<dim>1</dim>
					<dim>160</dim>
					<dim>22</dim>
					<dim>22</dim>
				</port>
			</output>
		</layer>
		<layer id="216" name="data_add_3083030835/copy_const" type="Const" version="opset1">
			<data element_type="f16" offset="1386944" shape="1,160,1,1" size="320"/>
			<output>
				<port id="1" precision="FP16">
					<dim>1</dim>
					<dim>160</dim>
					<dim>1</dim>
					<dim>1</dim>
				</port>
			</output>
		</layer>
		<layer id="217" name="486/variance/Fused_Add_" type="Add" version="opset1">
			<input>
				<port id="0">
					<dim>1</dim>
					<dim>160</dim>
					<dim>22</dim>
					<dim>22</dim>
				</port>
				<port id="1">
					<dim>1</dim>
					<dim>160</dim>
					<dim>1</dim>
					<dim>1</dim>
				</port>
			</input>
			<output>
				<port id="2" precision="FP16">
					<dim>1</dim>
					<dim>160</dim>
					<dim>22</dim>
					<dim>22</dim>
				</port>
			</output>
		</layer>
		<layer id="218" name="488/mean/Fused_Mul_3310333105_const" type="Const" version="opset1">
			<data element_type="f16" offset="1387264" shape="960,160,1,1" size="307200"/>
			<output>
				<port id="1" precision="FP16">
					<dim>960</dim>
					<dim>160</dim>
					<dim>1</dim>
					<dim>1</dim>
				</port>
			</output>
		</layer>
		<layer id="219" name="487" type="Convolution" version="opset1">
			<data dilations="1,1" output_padding="0,0" pads_begin="0,0" pads_end="0,0" strides="1,1"/>
			<input>
				<port id="0">
					<dim>1</dim>
					<dim>160</dim>
					<dim>22</dim>
					<dim>22</dim>
				</port>
				<port id="1">
					<dim>960</dim>
					<dim>160</dim>
					<dim>1</dim>
					<dim>1</dim>
				</port>
			</input>
			<output>
				<port id="2" precision="FP16">
					<dim>1</dim>
					<dim>960</dim>
					<dim>22</dim>
					<dim>22</dim>
				</port>
			</output>
		</layer>
		<layer id="220" name="data_add_3083830843/copy_const" type="Const" version="opset1">
			<data element_type="f16" offset="1694464" shape="1,960,1,1" size="1920"/>
			<output>
				<port id="1" precision="FP16">
					<dim>1</dim>
					<dim>960</dim>
					<dim>1</dim>
					<dim>1</dim>
				</port>
			</output>
		</layer>
		<layer id="221" name="488/variance/Fused_Add_" type="Add" version="opset1">
			<input>
				<port id="0">
					<dim>1</dim>
					<dim>960</dim>
					<dim>22</dim>
					<dim>22</dim>
				</port>
				<port id="1">
					<dim>1</dim>
					<dim>960</dim>
					<dim>1</dim>
					<dim>1</dim>
				</port>
			</input>
			<output>
				<port id="2" precision="FP16">
					<dim>1</dim>
					<dim>960</dim>
					<dim>22</dim>
					<dim>22</dim>
				</port>
			</output>
		</layer>
		<layer id="222" name="489" type="Clamp" version="opset1">
			<data max="6.0" min="0.0"/>
			<input>
				<port id="0">
					<dim>1</dim>
					<dim>960</dim>
					<dim>22</dim>
					<dim>22</dim>
				</port>
			</input>
			<output>
				<port id="1" precision="FP16">
					<dim>1</dim>
					<dim>960</dim>
					<dim>22</dim>
					<dim>22</dim>
				</port>
			</output>
		</layer>
		<layer id="223" name="6212062123_const" type="Const" version="opset1">
			<data element_type="f16" offset="1696384" shape="960,1,1,3,3" size="17280"/>
			<output>
				<port id="1" precision="FP16">
					<dim>960</dim>
					<dim>1</dim>
					<dim>1</dim>
					<dim>3</dim>
					<dim>3</dim>
				</port>
			</output>
		</layer>
		<layer id="224" name="490" type="GroupConvolution" version="opset1">
			<data dilations="1,1" output_padding="0,0" pads_begin="1,1" pads_end="1,1" strides="1,1"/>
			<input>
				<port id="0">
					<dim>1</dim>
					<dim>960</dim>
					<dim>22</dim>
					<dim>22</dim>
				</port>
				<port id="1">
					<dim>960</dim>
					<dim>1</dim>
					<dim>1</dim>
					<dim>3</dim>
					<dim>3</dim>
				</port>
			</input>
			<output>
				<port id="2" precision="FP16">
					<dim>1</dim>
					<dim>960</dim>
					<dim>22</dim>
					<dim>22</dim>
				</port>
			</output>
		</layer>
		<layer id="225" name="data_add_3084630851/copy_const" type="Const" version="opset1">
			<data element_type="f16" offset="1713664" shape="1,960,1,1" size="1920"/>
			<output>
				<port id="1" precision="FP16">
					<dim>1</dim>
					<dim>960</dim>
					<dim>1</dim>
					<dim>1</dim>
				</port>
			</output>
		</layer>
		<layer id="226" name="491/variance/Fused_Add_" type="Add" version="opset1">
			<input>
				<port id="0">
					<dim>1</dim>
					<dim>960</dim>
					<dim>22</dim>
					<dim>22</dim>
				</port>
				<port id="1">
					<dim>1</dim>
					<dim>960</dim>
					<dim>1</dim>
					<dim>1</dim>
				</port>
			</input>
			<output>
				<port id="2" precision="FP16">
					<dim>1</dim>
					<dim>960</dim>
					<dim>22</dim>
					<dim>22</dim>
				</port>
			</output>
		</layer>
		<layer id="227" name="492" type="Clamp" version="opset1">
			<data max="6.0" min="0.0"/>
			<input>
				<port id="0">
					<dim>1</dim>
					<dim>960</dim>
					<dim>22</dim>
					<dim>22</dim>
				</port>
			</input>
			<output>
				<port id="1" precision="FP16">
					<dim>1</dim>
					<dim>960</dim>
					<dim>22</dim>
					<dim>22</dim>
				</port>
			</output>
		</layer>
		<layer id="228" name="494/mean/Fused_Mul_3311133113_const" type="Const" version="opset1">
			<data element_type="f16" offset="1715584" shape="160,960,1,1" size="307200"/>
			<output>
				<port id="1" precision="FP16">
					<dim>160</dim>
					<dim>960</dim>
					<dim>1</dim>
					<dim>1</dim>
				</port>
			</output>
		</layer>
		<layer id="229" name="493" type="Convolution" version="opset1">
			<data dilations="1,1" output_padding="0,0" pads_begin="0,0" pads_end="0,0" strides="1,1"/>
			<input>
				<port id="0">
					<dim>1</dim>
					<dim>960</dim>
					<dim>22</dim>
					<dim>22</dim>
				</port>
				<port id="1">
					<dim>160</dim>
					<dim>960</dim>
					<dim>1</dim>
					<dim>1</dim>
				</port>
			</input>
			<output>
				<port id="2" precision="FP16">
					<dim>1</dim>
					<dim>160</dim>
					<dim>22</dim>
					<dim>22</dim>
				</port>
			</output>
		</layer>
		<layer id="230" name="data_add_3085430859/copy_const" type="Const" version="opset1">
			<data element_type="f16" offset="2022784" shape="1,160,1,1" size="320"/>
			<output>
				<port id="1" precision="FP16">
					<dim>1</dim>
					<dim>160</dim>
					<dim>1</dim>
					<dim>1</dim>
				</port>
			</output>
		</layer>
		<layer id="231" name="494/variance/Fused_Add_" type="Add" version="opset1">
			<input>
				<port id="0">
					<dim>1</dim>
					<dim>160</dim>
					<dim>22</dim>
					<dim>22</dim>
				</port>
				<port id="1">
					<dim>1</dim>
					<dim>160</dim>
					<dim>1</dim>
					<dim>1</dim>
				</port>
			</input>
			<output>
				<port id="2" precision="FP16">
					<dim>1</dim>
					<dim>160</dim>
					<dim>22</dim>
					<dim>22</dim>
				</port>
			</output>
		</layer>
		<layer id="232" name="495" type="Add" version="opset1">
			<input>
				<port id="0">
					<dim>1</dim>
					<dim>160</dim>
					<dim>22</dim>
					<dim>22</dim>
				</port>
				<port id="1">
					<dim>1</dim>
					<dim>160</dim>
					<dim>22</dim>
					<dim>22</dim>
				</port>
			</input>
			<output>
				<port id="2" precision="FP16">
					<dim>1</dim>
					<dim>160</dim>
					<dim>22</dim>
					<dim>22</dim>
				</port>
			</output>
		</layer>
		<layer id="233" name="497/mean/Fused_Mul_3311533117_const" type="Const" version="opset1">
			<data element_type="f16" offset="2023104" shape="960,160,1,1" size="307200"/>
			<output>
				<port id="1" precision="FP16">
					<dim>960</dim>
					<dim>160</dim>
					<dim>1</dim>
					<dim>1</dim>
				</port>
			</output>
		</layer>
		<layer id="234" name="496" type="Convolution" version="opset1">
			<data dilations="1,1" output_padding="0,0" pads_begin="0,0" pads_end="0,0" strides="1,1"/>
			<input>
				<port id="0">
					<dim>1</dim>
					<dim>160</dim>
					<dim>22</dim>
					<dim>22</dim>
				</port>
				<port id="1">
					<dim>960</dim>
					<dim>160</dim>
					<dim>1</dim>
					<dim>1</dim>
				</port>
			</input>
			<output>
				<port id="2" precision="FP16">
					<dim>1</dim>
					<dim>960</dim>
					<dim>22</dim>
					<dim>22</dim>
				</port>
			</output>
		</layer>
		<layer id="235" name="data_add_3086230867/copy_const" type="Const" version="opset1">
			<data element_type="f16" offset="2330304" shape="1,960,1,1" size="1920"/>
			<output>
				<port id="1" precision="FP16">
					<dim>1</dim>
					<dim>960</dim>
					<dim>1</dim>
					<dim>1</dim>
				</port>
			</output>
		</layer>
		<layer id="236" name="497/variance/Fused_Add_" type="Add" version="opset1">
			<input>
				<port id="0">
					<dim>1</dim>
					<dim>960</dim>
					<dim>22</dim>
					<dim>22</dim>
				</port>
				<port id="1">
					<dim>1</dim>
					<dim>960</dim>
					<dim>1</dim>
					<dim>1</dim>
				</port>
			</input>
			<output>
				<port id="2" precision="FP16">
					<dim>1</dim>
					<dim>960</dim>
					<dim>22</dim>
					<dim>22</dim>
				</port>
			</output>
		</layer>
		<layer id="237" name="498" type="Clamp" version="opset1">
			<data max="6.0" min="0.0"/>
			<input>
				<port id="0">
					<dim>1</dim>
					<dim>960</dim>
					<dim>22</dim>
					<dim>22</dim>
				</port>
			</input>
			<output>
				<port id="1" precision="FP16">
					<dim>1</dim>
					<dim>960</dim>
					<dim>22</dim>
					<dim>22</dim>
				</port>
			</output>
		</layer>
		<layer id="238" name="6214462147_const" type="Const" version="opset1">
			<data element_type="f16" offset="2332224" shape="960,1,1,3,3" size="17280"/>
			<output>
				<port id="1" precision="FP16">
					<dim>960</dim>
					<dim>1</dim>
					<dim>1</dim>
					<dim>3</dim>
					<dim>3</dim>
				</port>
			</output>
		</layer>
		<layer id="239" name="499" type="GroupConvolution" version="opset1">
			<data dilations="1,1" output_padding="0,0" pads_begin="1,1" pads_end="1,1" strides="1,1"/>
			<input>
				<port id="0">
					<dim>1</dim>
					<dim>960</dim>
					<dim>22</dim>
					<dim>22</dim>
				</port>
				<port id="1">
					<dim>960</dim>
					<dim>1</dim>
					<dim>1</dim>
					<dim>3</dim>
					<dim>3</dim>
				</port>
			</input>
			<output>
				<port id="2" precision="FP16">
					<dim>1</dim>
					<dim>960</dim>
					<dim>22</dim>
					<dim>22</dim>
				</port>
			</output>
		</layer>
		<layer id="240" name="data_add_3087030875/copy_const" type="Const" version="opset1">
			<data element_type="f16" offset="2349504" shape="1,960,1,1" size="1920"/>
			<output>
				<port id="1" precision="FP16">
					<dim>1</dim>
					<dim>960</dim>
					<dim>1</dim>
					<dim>1</dim>
				</port>
			</output>
		</layer>
		<layer id="241" name="500/variance/Fused_Add_" type="Add" version="opset1">
			<input>
				<port id="0">
					<dim>1</dim>
					<dim>960</dim>
					<dim>22</dim>
					<dim>22</dim>
				</port>
				<port id="1">
					<dim>1</dim>
					<dim>960</dim>
					<dim>1</dim>
					<dim>1</dim>
				</port>
			</input>
			<output>
				<port id="2" precision="FP16">
					<dim>1</dim>
					<dim>960</dim>
					<dim>22</dim>
					<dim>22</dim>
				</port>
			</output>
		</layer>
		<layer id="242" name="501" type="Clamp" version="opset1">
			<data max="6.0" min="0.0"/>
			<input>
				<port id="0">
					<dim>1</dim>
					<dim>960</dim>
					<dim>22</dim>
					<dim>22</dim>
				</port>
			</input>
			<output>
				<port id="1" precision="FP16">
					<dim>1</dim>
					<dim>960</dim>
					<dim>22</dim>
					<dim>22</dim>
				</port>
			</output>
		</layer>
		<layer id="243" name="503/mean/Fused_Mul_3312333125_const" type="Const" version="opset1">
			<data element_type="f16" offset="2351424" shape="160,960,1,1" size="307200"/>
			<output>
				<port id="1" precision="FP16">
					<dim>160</dim>
					<dim>960</dim>
					<dim>1</dim>
					<dim>1</dim>
				</port>
			</output>
		</layer>
		<layer id="244" name="502" type="Convolution" version="opset1">
			<data dilations="1,1" output_padding="0,0" pads_begin="0,0" pads_end="0,0" strides="1,1"/>
			<input>
				<port id="0">
					<dim>1</dim>
					<dim>960</dim>
					<dim>22</dim>
					<dim>22</dim>
				</port>
				<port id="1">
					<dim>160</dim>
					<dim>960</dim>
					<dim>1</dim>
					<dim>1</dim>
				</port>
			</input>
			<output>
				<port id="2" precision="FP16">
					<dim>1</dim>
					<dim>160</dim>
					<dim>22</dim>
					<dim>22</dim>
				</port>
			</output>
		</layer>
		<layer id="245" name="data_add_3087830883/copy_const" type="Const" version="opset1">
			<data element_type="f16" offset="2658624" shape="1,160,1,1" size="320"/>
			<output>
				<port id="1" precision="FP16">
					<dim>1</dim>
					<dim>160</dim>
					<dim>1</dim>
					<dim>1</dim>
				</port>
			</output>
		</layer>
		<layer id="246" name="503/variance/Fused_Add_" type="Add" version="opset1">
			<input>
				<port id="0">
					<dim>1</dim>
					<dim>160</dim>
					<dim>22</dim>
					<dim>22</dim>
				</port>
				<port id="1">
					<dim>1</dim>
					<dim>160</dim>
					<dim>1</dim>
					<dim>1</dim>
				</port>
			</input>
			<output>
				<port id="2" precision="FP16">
					<dim>1</dim>
					<dim>160</dim>
					<dim>22</dim>
					<dim>22</dim>
				</port>
			</output>
		</layer>
		<layer id="247" name="504" type="Add" version="opset1">
			<input>
				<port id="0">
					<dim>1</dim>
					<dim>160</dim>
					<dim>22</dim>
					<dim>22</dim>
				</port>
				<port id="1">
					<dim>1</dim>
					<dim>160</dim>
					<dim>22</dim>
					<dim>22</dim>
				</port>
			</input>
			<output>
				<port id="2" precision="FP16">
					<dim>1</dim>
					<dim>160</dim>
					<dim>22</dim>
					<dim>22</dim>
				</port>
			</output>
		</layer>
		<layer id="248" name="506/mean/Fused_Mul_3312733129_const" type="Const" version="opset1">
			<data element_type="f16" offset="2658944" shape="960,160,1,1" size="307200"/>
			<output>
				<port id="1" precision="FP16">
					<dim>960</dim>
					<dim>160</dim>
					<dim>1</dim>
					<dim>1</dim>
				</port>
			</output>
		</layer>
		<layer id="249" name="505" type="Convolution" version="opset1">
			<data dilations="1,1" output_padding="0,0" pads_begin="0,0" pads_end="0,0" strides="1,1"/>
			<input>
				<port id="0">
					<dim>1</dim>
					<dim>160</dim>
					<dim>22</dim>
					<dim>22</dim>
				</port>
				<port id="1">
					<dim>960</dim>
					<dim>160</dim>
					<dim>1</dim>
					<dim>1</dim>
				</port>
			</input>
			<output>
				<port id="2" precision="FP16">
					<dim>1</dim>
					<dim>960</dim>
					<dim>22</dim>
					<dim>22</dim>
				</port>
			</output>
		</layer>
		<layer id="250" name="data_add_3088630891/copy_const" type="Const" version="opset1">
			<data element_type="f16" offset="2966144" shape="1,960,1,1" size="1920"/>
			<output>
				<port id="1" precision="FP16">
					<dim>1</dim>
					<dim>960</dim>
					<dim>1</dim>
					<dim>1</dim>
				</port>
			</output>
		</layer>
		<layer id="251" name="506/variance/Fused_Add_" type="Add" version="opset1">
			<input>
				<port id="0">
					<dim>1</dim>
					<dim>960</dim>
					<dim>22</dim>
					<dim>22</dim>
				</port>
				<port id="1">
					<dim>1</dim>
					<dim>960</dim>
					<dim>1</dim>
					<dim>1</dim>
				</port>
			</input>
			<output>
				<port id="2" precision="FP16">
					<dim>1</dim>
					<dim>960</dim>
					<dim>22</dim>
					<dim>22</dim>
				</port>
			</output>
		</layer>
		<layer id="252" name="507" type="Clamp" version="opset1">
			<data max="6.0" min="0.0"/>
			<input>
				<port id="0">
					<dim>1</dim>
					<dim>960</dim>
					<dim>22</dim>
					<dim>22</dim>
				</port>
			</input>
			<output>
				<port id="1" precision="FP16">
					<dim>1</dim>
					<dim>960</dim>
					<dim>22</dim>
					<dim>22</dim>
				</port>
			</output>
		</layer>
		<layer id="253" name="6215662159_const" type="Const" version="opset1">
			<data element_type="f16" offset="2968064" shape="960,1,1,3,3" size="17280"/>
			<output>
				<port id="1" precision="FP16">
					<dim>960</dim>
					<dim>1</dim>
					<dim>1</dim>
					<dim>3</dim>
					<dim>3</dim>
				</port>
			</output>
		</layer>
		<layer id="254" name="508" type="GroupConvolution" version="opset1">
			<data dilations="1,1" output_padding="0,0" pads_begin="1,1" pads_end="1,1" strides="1,1"/>
			<input>
				<port id="0">
					<dim>1</dim>
					<dim>960</dim>
					<dim>22</dim>
					<dim>22</dim>
				</port>
				<port id="1">
					<dim>960</dim>
					<dim>1</dim>
					<dim>1</dim>
					<dim>3</dim>
					<dim>3</dim>
				</port>
			</input>
			<output>
				<port id="2" precision="FP16">
					<dim>1</dim>
					<dim>960</dim>
					<dim>22</dim>
					<dim>22</dim>
				</port>
			</output>
		</layer>
		<layer id="255" name="data_add_3089430899/copy_const" type="Const" version="opset1">
			<data element_type="f16" offset="2985344" shape="1,960,1,1" size="1920"/>
			<output>
				<port id="1" precision="FP16">
					<dim>1</dim>
					<dim>960</dim>
					<dim>1</dim>
					<dim>1</dim>
				</port>
			</output>
		</layer>
		<layer id="256" name="509/variance/Fused_Add_" type="Add" version="opset1">
			<input>
				<port id="0">
					<dim>1</dim>
					<dim>960</dim>
					<dim>22</dim>
					<dim>22</dim>
				</port>
				<port id="1">
					<dim>1</dim>
					<dim>960</dim>
					<dim>1</dim>
					<dim>1</dim>
				</port>
			</input>
			<output>
				<port id="2" precision="FP16">
					<dim>1</dim>
					<dim>960</dim>
					<dim>22</dim>
					<dim>22</dim>
				</port>
			</output>
		</layer>
		<layer id="257" name="510" type="Clamp" version="opset1">
			<data max="6.0" min="0.0"/>
			<input>
				<port id="0">
					<dim>1</dim>
					<dim>960</dim>
					<dim>22</dim>
					<dim>22</dim>
				</port>
			</input>
			<output>
				<port id="1" precision="FP16">
					<dim>1</dim>
					<dim>960</dim>
					<dim>22</dim>
					<dim>22</dim>
				</port>
			</output>
		</layer>
		<layer id="258" name="512/mean/Fused_Mul_3313533137_const" type="Const" version="opset1">
			<data element_type="f16" offset="2987264" shape="320,960,1,1" size="614400"/>
			<output>
				<port id="1" precision="FP16">
					<dim>320</dim>
					<dim>960</dim>
					<dim>1</dim>
					<dim>1</dim>
				</port>
			</output>
		</layer>
		<layer id="259" name="511" type="Convolution" version="opset1">
			<data dilations="1,1" output_padding="0,0" pads_begin="0,0" pads_end="0,0" strides="1,1"/>
			<input>
				<port id="0">
					<dim>1</dim>
					<dim>960</dim>
					<dim>22</dim>
					<dim>22</dim>
				</port>
				<port id="1">
					<dim>320</dim>
					<dim>960</dim>
					<dim>1</dim>
					<dim>1</dim>
				</port>
			</input>
			<output>
				<port id="2" precision="FP16">
					<dim>1</dim>
					<dim>320</dim>
					<dim>22</dim>
					<dim>22</dim>
				</port>
			</output>
		</layer>
		<layer id="260" name="data_add_3090230907/copy_const" type="Const" version="opset1">
			<data element_type="f16" offset="3601664" shape="1,320,1,1" size="640"/>
			<output>
				<port id="1" precision="FP16">
					<dim>1</dim>
					<dim>320</dim>
					<dim>1</dim>
					<dim>1</dim>
				</port>
			</output>
		</layer>
		<layer id="261" name="512/variance/Fused_Add_" type="Add" version="opset1">
			<input>
				<port id="0">
					<dim>1</dim>
					<dim>320</dim>
					<dim>22</dim>
					<dim>22</dim>
				</port>
				<port id="1">
					<dim>1</dim>
					<dim>320</dim>
					<dim>1</dim>
					<dim>1</dim>
				</port>
			</input>
			<output>
				<port id="2" precision="FP16">
					<dim>1</dim>
					<dim>320</dim>
					<dim>22</dim>
					<dim>22</dim>
				</port>
			</output>
		</layer>
		<layer id="262" name="onnx_initializer_node_neck.lateral_convs.2.conv.weight/Output_0/Data__const" type="Const" version="opset1">
			<data element_type="f16" offset="3602304" shape="32,320,1,1" size="20480"/>
			<output>
				<port id="1" precision="FP16">
					<dim>32</dim>
					<dim>320</dim>
					<dim>1</dim>
					<dim>1</dim>
				</port>
			</output>
		</layer>
		<layer id="263" name="515/WithoutBiases" type="Convolution" version="opset1">
			<data dilations="1,1" output_padding="0,0" pads_begin="0,0" pads_end="0,0" strides="1,1"/>
			<input>
				<port id="0">
					<dim>1</dim>
					<dim>320</dim>
					<dim>22</dim>
					<dim>22</dim>
				</port>
				<port id="1">
					<dim>32</dim>
					<dim>320</dim>
					<dim>1</dim>
					<dim>1</dim>
				</port>
			</input>
			<output>
				<port id="2" precision="FP16">
					<dim>1</dim>
					<dim>32</dim>
					<dim>22</dim>
					<dim>22</dim>
				</port>
			</output>
		</layer>
		<layer id="264" name="515/Dims18988/copy_const" type="Const" version="opset1">
			<data element_type="f16" offset="3622784" shape="1,32,1,1" size="64"/>
			<output>
				<port id="1" precision="FP16">
					<dim>1</dim>
					<dim>32</dim>
					<dim>1</dim>
					<dim>1</dim>
				</port>
			</output>
		</layer>
		<layer id="265" name="515" type="Add" version="opset1">
			<input>
				<port id="0">
					<dim>1</dim>
					<dim>32</dim>
					<dim>22</dim>
					<dim>22</dim>
				</port>
				<port id="1">
					<dim>1</dim>
					<dim>32</dim>
					<dim>1</dim>
					<dim>1</dim>
				</port>
			</input>
			<output>
				<port id="2" precision="FP16">
					<dim>1</dim>
					<dim>32</dim>
					<dim>22</dim>
					<dim>22</dim>
				</port>
			</output>
		</layer>
		<layer id="266" name="535/0_port" type="ShapeOf" version="opset3">
			<data output_type="i64"/>
			<input>
				<port id="0">
					<dim>1</dim>
					<dim>32</dim>
					<dim>22</dim>
					<dim>22</dim>
				</port>
			</input>
			<output>
				<port id="1" precision="I64">
					<dim>4</dim>
				</port>
			</output>
		</layer>
		<layer id="267" name="535/ss_0_port/Cast_163877_const" type="Const" version="opset1">
			<data element_type="i64" offset="3622848" shape="1" size="8"/>
			<output>
				<port id="1" precision="I64">
					<dim>1</dim>
				</port>
			</output>
		</layer>
		<layer id="268" name="535/ss_0_port/Cast_263879_const" type="Const" version="opset1">
			<data element_type="i64" offset="3622856" shape="1" size="8"/>
			<output>
				<port id="1" precision="I64">
					<dim>1</dim>
				</port>
			</output>
		</layer>
		<layer id="269" name="535/ss_0_port/Cast_363881_const" type="Const" version="opset1">
			<data element_type="i64" offset="3622864" shape="1" size="8"/>
			<output>
				<port id="1" precision="I64">
					<dim>1</dim>
				</port>
			</output>
		</layer>
		<layer id="270" name="535/ss_0_port" type="StridedSlice" version="opset1">
			<data begin_mask="0" ellipsis_mask="0" end_mask="0" new_axis_mask="0" shrink_axis_mask="0"/>
			<input>
				<port id="0">
					<dim>4</dim>
				</port>
				<port id="1">
					<dim>1</dim>
				</port>
				<port id="2">
					<dim>1</dim>
				</port>
				<port id="3">
					<dim>1</dim>
				</port>
			</input>
			<output>
				<port id="4" precision="I64">
					<dim>2</dim>
				</port>
			</output>
		</layer>
		<layer id="271" name="14909" type="Convert" version="opset1">
			<data destination_type="f32"/>
			<input>
				<port id="0">
					<dim>2</dim>
				</port>
			</input>
			<output>
				<port id="1" precision="FP32">
					<dim>2</dim>
				</port>
			</output>
		</layer>
		<layer id="272" name="535/factor_mul_/value14903_const" type="Const" version="opset1">
			<data element_type="f32" offset="3622872" shape="2" size="8"/>
			<output>
				<port id="1" precision="FP32">
					<dim>2</dim>
				</port>
			</output>
		</layer>
		<layer id="273" name="535/factor_mul_" type="Multiply" version="opset1">
			<input>
				<port id="0">
					<dim>2</dim>
				</port>
				<port id="1">
					<dim>2</dim>
				</port>
			</input>
			<output>
				<port id="2" precision="FP32">
					<dim>2</dim>
				</port>
			</output>
		</layer>
		<layer id="274" name="14910" type="Convert" version="opset1">
			<data destination_type="i64"/>
			<input>
				<port id="0">
					<dim>2</dim>
				</port>
			</input>
			<output>
				<port id="1" precision="I64">
					<dim>2</dim>
				</port>
			</output>
		</layer>
		<layer id="275" name="535/Interpolate" type="Interpolate" version="opset1">
			<data align_corners="0" antialias="0" axes="2,3" mode="nearest" pads_begin="0" pads_end="0"/>
			<input>
				<port id="0">
					<dim>1</dim>
					<dim>32</dim>
					<dim>22</dim>
					<dim>22</dim>
				</port>
				<port id="1">
					<dim>2</dim>
				</port>
			</input>
			<output>
				<port id="2" precision="FP16">
					<dim>1</dim>
					<dim>32</dim>
					<dim>44</dim>
					<dim>44</dim>
				</port>
			</output>
		</layer>
		<layer id="276" name="536" type="Add" version="opset1">
			<input>
				<port id="0">
					<dim>1</dim>
					<dim>32</dim>
					<dim>44</dim>
					<dim>44</dim>
				</port>
				<port id="1">
					<dim>1</dim>
					<dim>32</dim>
					<dim>44</dim>
					<dim>44</dim>
				</port>
			</input>
			<output>
				<port id="2" precision="FP16">
					<dim>1</dim>
					<dim>32</dim>
					<dim>44</dim>
					<dim>44</dim>
				</port>
			</output>
		</layer>
		<layer id="277" name="556/0_port" type="ShapeOf" version="opset3">
			<data output_type="i64"/>
			<input>
				<port id="0">
					<dim>1</dim>
					<dim>32</dim>
					<dim>44</dim>
					<dim>44</dim>
				</port>
			</input>
			<output>
				<port id="1" precision="I64">
					<dim>4</dim>
				</port>
			</output>
		</layer>
		<layer id="278" name="556/ss_0_port/Cast_164143_const" type="Const" version="opset1">
			<data element_type="i64" offset="3622848" shape="1" size="8"/>
			<output>
				<port id="1" precision="I64">
					<dim>1</dim>
				</port>
			</output>
		</layer>
		<layer id="279" name="556/ss_0_port/Cast_264145_const" type="Const" version="opset1">
			<data element_type="i64" offset="3622856" shape="1" size="8"/>
			<output>
				<port id="1" precision="I64">
					<dim>1</dim>
				</port>
			</output>
		</layer>
		<layer id="280" name="556/ss_0_port/Cast_364147_const" type="Const" version="opset1">
			<data element_type="i64" offset="3622864" shape="1" size="8"/>
			<output>
				<port id="1" precision="I64">
					<dim>1</dim>
				</port>
			</output>
		</layer>
		<layer id="281" name="556/ss_0_port" type="StridedSlice" version="opset1">
			<data begin_mask="0" ellipsis_mask="0" end_mask="0" new_axis_mask="0" shrink_axis_mask="0"/>
			<input>
				<port id="0">
					<dim>4</dim>
				</port>
				<port id="1">
					<dim>1</dim>
				</port>
				<port id="2">
					<dim>1</dim>
				</port>
				<port id="3">
					<dim>1</dim>
				</port>
			</input>
			<output>
				<port id="4" precision="I64">
					<dim>2</dim>
				</port>
			</output>
		</layer>
		<layer id="282" name="14889" type="Convert" version="opset1">
			<data destination_type="f32"/>
			<input>
				<port id="0">
					<dim>2</dim>
				</port>
			</input>
			<output>
				<port id="1" precision="FP32">
					<dim>2</dim>
				</port>
			</output>
		</layer>
		<layer id="283" name="556/factor_mul_/value14883_const" type="Const" version="opset1">
			<data element_type="f32" offset="3622872" shape="2" size="8"/>
			<output>
				<port id="1" precision="FP32">
					<dim>2</dim>
				</port>
			</output>
		</layer>
		<layer id="284" name="556/factor_mul_" type="Multiply" version="opset1">
			<input>
				<port id="0">
					<dim>2</dim>
				</port>
				<port id="1">
					<dim>2</dim>
				</port>
			</input>
			<output>
				<port id="2" precision="FP32">
					<dim>2</dim>
				</port>
			</output>
		</layer>
		<layer id="285" name="14890" type="Convert" version="opset1">
			<data destination_type="i64"/>
			<input>
				<port id="0">
					<dim>2</dim>
				</port>
			</input>
			<output>
				<port id="1" precision="I64">
					<dim>2</dim>
				</port>
			</output>
		</layer>
		<layer id="286" name="556/Interpolate" type="Interpolate" version="opset1">
			<data align_corners="0" antialias="0" axes="2,3" mode="nearest" pads_begin="0" pads_end="0"/>
			<input>
				<port id="0">
					<dim>1</dim>
					<dim>32</dim>
					<dim>44</dim>
					<dim>44</dim>
				</port>
				<port id="1">
					<dim>2</dim>
				</port>
			</input>
			<output>
				<port id="2" precision="FP16">
					<dim>1</dim>
					<dim>32</dim>
					<dim>88</dim>
					<dim>88</dim>
				</port>
			</output>
		</layer>
		<layer id="287" name="557" type="Add" version="opset1">
			<input>
				<port id="0">
					<dim>1</dim>
					<dim>32</dim>
					<dim>88</dim>
					<dim>88</dim>
				</port>
				<port id="1">
					<dim>1</dim>
					<dim>32</dim>
					<dim>88</dim>
					<dim>88</dim>
				</port>
			</input>
			<output>
				<port id="2" precision="FP16">
					<dim>1</dim>
					<dim>32</dim>
					<dim>88</dim>
					<dim>88</dim>
				</port>
			</output>
		</layer>
		<layer id="288" name="onnx_initializer_node_neck.fpn_convs.0.conv.weight/Output_0/Data__const" type="Const" version="opset1">
			<data element_type="f16" offset="3622880" shape="32,32,3,3" size="18432"/>
			<output>
				<port id="1" precision="FP16">
					<dim>32</dim>
					<dim>32</dim>
					<dim>3</dim>
					<dim>3</dim>
				</port>
			</output>
		</layer>
		<layer id="289" name="558/WithoutBiases" type="Convolution" version="opset1">
			<data dilations="1,1" output_padding="0,0" pads_begin="1,1" pads_end="1,1" strides="1,1"/>
			<input>
				<port id="0">
					<dim>1</dim>
					<dim>32</dim>
					<dim>88</dim>
					<dim>88</dim>
				</port>
				<port id="1">
					<dim>32</dim>
					<dim>32</dim>
					<dim>3</dim>
					<dim>3</dim>
				</port>
			</input>
			<output>
				<port id="2" precision="FP16">
					<dim>1</dim>
					<dim>32</dim>
					<dim>88</dim>
					<dim>88</dim>
				</port>
			</output>
		</layer>
		<layer id="290" name="558/Dims18976/copy_const" type="Const" version="opset1">
			<data element_type="f16" offset="3641312" shape="1,32,1,1" size="64"/>
			<output>
				<port id="1" precision="FP16">
					<dim>1</dim>
					<dim>32</dim>
					<dim>1</dim>
					<dim>1</dim>
				</port>
			</output>
		</layer>
		<layer id="291" name="558" type="Add" version="opset1">
			<input>
				<port id="0">
					<dim>1</dim>
					<dim>32</dim>
					<dim>88</dim>
					<dim>88</dim>
				</port>
				<port id="1">
					<dim>1</dim>
					<dim>32</dim>
					<dim>1</dim>
					<dim>1</dim>
				</port>
			</input>
			<output>
				<port id="2" precision="FP16">
					<dim>1</dim>
					<dim>32</dim>
					<dim>88</dim>
					<dim>88</dim>
				</port>
			</output>
		</layer>
		<layer id="292" name="Copy_onnx_initializer_node_bbox_head.cls_convs.0.conv.weight/Output_0/Data__const" type="Const" version="opset1">
			<data element_type="f16" offset="3641376" shape="32,32,3,3" size="18432"/>
			<output>
				<port id="1" precision="FP16">
					<dim>32</dim>
					<dim>32</dim>
					<dim>3</dim>
					<dim>3</dim>
				</port>
			</output>
		</layer>
		<layer id="293" name="564" type="Convolution" version="opset1">
			<data dilations="1,1" output_padding="0,0" pads_begin="1,1" pads_end="1,1" strides="1,1"/>
			<input>
				<port id="0">
					<dim>1</dim>
					<dim>32</dim>
					<dim>88</dim>
					<dim>88</dim>
				</port>
				<port id="1">
					<dim>32</dim>
					<dim>32</dim>
					<dim>3</dim>
					<dim>3</dim>
				</port>
			</input>
			<output>
				<port id="2" precision="FP16">
					<dim>1</dim>
					<dim>32</dim>
					<dim>88</dim>
					<dim>88</dim>
				</port>
			</output>
		</layer>
		<layer id="294" name="565/Ins_Norm/MVN_" type="MVN" version="opset2">
			<data across_channels="0" eps="9.999999747378752e-06" normalize_variance="1"/>
			<input>
				<port id="0">
					<dim>1</dim>
					<dim>32</dim>
					<dim>88</dim>
					<dim>88</dim>
				</port>
			</input>
			<output>
				<port id="1" precision="FP16">
					<dim>1</dim>
					<dim>32</dim>
					<dim>88</dim>
					<dim>88</dim>
				</port>
			</output>
		</layer>
		<layer id="295" name="Copy_onnx_initializer_node_bbox_head.cls_convs.0.gn.weight/Output_0/Data_/copy/copy_const" type="Const" version="opset1">
			<data element_type="f16" offset="3659808" shape="1,32,1,1" size="64"/>
			<output>
				<port id="1" precision="FP16">
					<dim>1</dim>
					<dim>32</dim>
					<dim>1</dim>
					<dim>1</dim>
				</port>
			</output>
		</layer>
		<layer id="296" name="565/Ins_Norm/mul_" type="Multiply" version="opset1">
			<input>
				<port id="0">
					<dim>1</dim>
					<dim>32</dim>
					<dim>88</dim>
					<dim>88</dim>
				</port>
				<port id="1">
					<dim>1</dim>
					<dim>32</dim>
					<dim>1</dim>
					<dim>1</dim>
				</port>
			</input>
			<output>
				<port id="2" precision="FP16">
					<dim>1</dim>
					<dim>32</dim>
					<dim>88</dim>
					<dim>88</dim>
				</port>
			</output>
		</layer>
		<layer id="297" name="Copy_onnx_initializer_node_bbox_head.cls_convs.0.gn.bias/Output_0/Data_/copy/copy_const" type="Const" version="opset1">
			<data element_type="f16" offset="3659872" shape="1,32,1,1" size="64"/>
			<output>
				<port id="1" precision="FP16">
					<dim>1</dim>
					<dim>32</dim>
					<dim>1</dim>
					<dim>1</dim>
				</port>
			</output>
		</layer>
		<layer id="298" name="565/Ins_Norm/add_" type="Add" version="opset1">
			<input>
				<port id="0">
					<dim>1</dim>
					<dim>32</dim>
					<dim>88</dim>
					<dim>88</dim>
				</port>
				<port id="1">
					<dim>1</dim>
					<dim>32</dim>
					<dim>1</dim>
					<dim>1</dim>
				</port>
			</input>
			<output>
				<port id="2" precision="FP16">
					<dim>1</dim>
					<dim>32</dim>
					<dim>88</dim>
					<dim>88</dim>
				</port>
			</output>
		</layer>
		<layer id="299" name="566" type="ReLU" version="opset1">
			<input>
				<port id="0">
					<dim>1</dim>
					<dim>32</dim>
					<dim>88</dim>
					<dim>88</dim>
				</port>
			</input>
			<output>
				<port id="1" precision="FP16">
					<dim>1</dim>
					<dim>32</dim>
					<dim>88</dim>
					<dim>88</dim>
				</port>
			</output>
		</layer>
		<layer id="300" name="Copy_onnx_initializer_node_bbox_head.cls_convs.1.conv.weight/Output_0/Data__const" type="Const" version="opset1">
			<data element_type="f16" offset="3659936" shape="32,32,3,3" size="18432"/>
			<output>
				<port id="1" precision="FP16">
					<dim>32</dim>
					<dim>32</dim>
					<dim>3</dim>
					<dim>3</dim>
				</port>
			</output>
		</layer>
		<layer id="301" name="567" type="Convolution" version="opset1">
			<data dilations="1,1" output_padding="0,0" pads_begin="1,1" pads_end="1,1" strides="1,1"/>
			<input>
				<port id="0">
					<dim>1</dim>
					<dim>32</dim>
					<dim>88</dim>
					<dim>88</dim>
				</port>
				<port id="1">
					<dim>32</dim>
					<dim>32</dim>
					<dim>3</dim>
					<dim>3</dim>
				</port>
			</input>
			<output>
				<port id="2" precision="FP16">
					<dim>1</dim>
					<dim>32</dim>
					<dim>88</dim>
					<dim>88</dim>
				</port>
			</output>
		</layer>
		<layer id="302" name="568/Ins_Norm/MVN_" type="MVN" version="opset2">
			<data across_channels="0" eps="9.999999747378752e-06" normalize_variance="1"/>
			<input>
				<port id="0">
					<dim>1</dim>
					<dim>32</dim>
					<dim>88</dim>
					<dim>88</dim>
				</port>
			</input>
			<output>
				<port id="1" precision="FP16">
					<dim>1</dim>
					<dim>32</dim>
					<dim>88</dim>
					<dim>88</dim>
				</port>
			</output>
		</layer>
		<layer id="303" name="Copy_onnx_initializer_node_bbox_head.cls_convs.1.gn.weight/Output_0/Data_5800/copy/copy_const" type="Const" version="opset1">
			<data element_type="f16" offset="3678368" shape="1,32,1,1" size="64"/>
			<output>
				<port id="1" precision="FP16">
					<dim>1</dim>
					<dim>32</dim>
					<dim>1</dim>
					<dim>1</dim>
				</port>
			</output>
		</layer>
		<layer id="304" name="568/Ins_Norm/mul_" type="Multiply" version="opset1">
			<input>
				<port id="0">
					<dim>1</dim>
					<dim>32</dim>
					<dim>88</dim>
					<dim>88</dim>
				</port>
				<port id="1">
					<dim>1</dim>
					<dim>32</dim>
					<dim>1</dim>
					<dim>1</dim>
				</port>
			</input>
			<output>
				<port id="2" precision="FP16">
					<dim>1</dim>
					<dim>32</dim>
					<dim>88</dim>
					<dim>88</dim>
				</port>
			</output>
		</layer>
		<layer id="305" name="Copy_onnx_initializer_node_bbox_head.cls_convs.1.gn.bias/Output_0/Data_5795/copy/copy_const" type="Const" version="opset1">
			<data element_type="f16" offset="3678432" shape="1,32,1,1" size="64"/>
			<output>
				<port id="1" precision="FP16">
					<dim>1</dim>
					<dim>32</dim>
					<dim>1</dim>
					<dim>1</dim>
				</port>
			</output>
		</layer>
		<layer id="306" name="568/Ins_Norm/add_" type="Add" version="opset1">
			<input>
				<port id="0">
					<dim>1</dim>
					<dim>32</dim>
					<dim>88</dim>
					<dim>88</dim>
				</port>
				<port id="1">
					<dim>1</dim>
					<dim>32</dim>
					<dim>1</dim>
					<dim>1</dim>
				</port>
			</input>
			<output>
				<port id="2" precision="FP16">
					<dim>1</dim>
					<dim>32</dim>
					<dim>88</dim>
					<dim>88</dim>
				</port>
			</output>
		</layer>
		<layer id="307" name="569" type="ReLU" version="opset1">
			<input>
				<port id="0">
					<dim>1</dim>
					<dim>32</dim>
					<dim>88</dim>
					<dim>88</dim>
				</port>
			</input>
			<output>
				<port id="1" precision="FP16">
					<dim>1</dim>
					<dim>32</dim>
					<dim>88</dim>
					<dim>88</dim>
				</port>
			</output>
		</layer>
		<layer id="308" name="Copy_onnx_initializer_node_bbox_head.cls_convs.2.conv.weight/Output_0/Data__const" type="Const" version="opset1">
			<data element_type="f16" offset="3678496" shape="32,32,3,3" size="18432"/>
			<output>
				<port id="1" precision="FP16">
					<dim>32</dim>
					<dim>32</dim>
					<dim>3</dim>
					<dim>3</dim>
				</port>
			</output>
		</layer>
		<layer id="309" name="570" type="Convolution" version="opset1">
			<data dilations="1,1" output_padding="0,0" pads_begin="1,1" pads_end="1,1" strides="1,1"/>
			<input>
				<port id="0">
					<dim>1</dim>
					<dim>32</dim>
					<dim>88</dim>
					<dim>88</dim>
				</port>
				<port id="1">
					<dim>32</dim>
					<dim>32</dim>
					<dim>3</dim>
					<dim>3</dim>
				</port>
			</input>
			<output>
				<port id="2" precision="FP16">
					<dim>1</dim>
					<dim>32</dim>
					<dim>88</dim>
					<dim>88</dim>
				</port>
			</output>
		</layer>
		<layer id="310" name="571/Ins_Norm/MVN_" type="MVN" version="opset2">
			<data across_channels="0" eps="9.999999747378752e-06" normalize_variance="1"/>
			<input>
				<port id="0">
					<dim>1</dim>
					<dim>32</dim>
					<dim>88</dim>
					<dim>88</dim>
				</port>
			</input>
			<output>
				<port id="1" precision="FP16">
					<dim>1</dim>
					<dim>32</dim>
					<dim>88</dim>
					<dim>88</dim>
				</port>
			</output>
		</layer>
		<layer id="311" name="Copy_onnx_initializer_node_bbox_head.cls_convs.2.gn.weight/Output_0/Data_5813/copy/copy_const" type="Const" version="opset1">
			<data element_type="f16" offset="3696928" shape="1,32,1,1" size="64"/>
			<output>
				<port id="1" precision="FP16">
					<dim>1</dim>
					<dim>32</dim>
					<dim>1</dim>
					<dim>1</dim>
				</port>
			</output>
		</layer>
		<layer id="312" name="571/Ins_Norm/mul_" type="Multiply" version="opset1">
			<input>
				<port id="0">
					<dim>1</dim>
					<dim>32</dim>
					<dim>88</dim>
					<dim>88</dim>
				</port>
				<port id="1">
					<dim>1</dim>
					<dim>32</dim>
					<dim>1</dim>
					<dim>1</dim>
				</port>
			</input>
			<output>
				<port id="2" precision="FP16">
					<dim>1</dim>
					<dim>32</dim>
					<dim>88</dim>
					<dim>88</dim>
				</port>
			</output>
		</layer>
		<layer id="313" name="Copy_onnx_initializer_node_bbox_head.cls_convs.2.gn.bias/Output_0/Data_5808/copy/copy_const" type="Const" version="opset1">
			<data element_type="f16" offset="3696992" shape="1,32,1,1" size="64"/>
			<output>
				<port id="1" precision="FP16">
					<dim>1</dim>
					<dim>32</dim>
					<dim>1</dim>
					<dim>1</dim>
				</port>
			</output>
		</layer>
		<layer id="314" name="571/Ins_Norm/add_" type="Add" version="opset1">
			<input>
				<port id="0">
					<dim>1</dim>
					<dim>32</dim>
					<dim>88</dim>
					<dim>88</dim>
				</port>
				<port id="1">
					<dim>1</dim>
					<dim>32</dim>
					<dim>1</dim>
					<dim>1</dim>
				</port>
			</input>
			<output>
				<port id="2" precision="FP16">
					<dim>1</dim>
					<dim>32</dim>
					<dim>88</dim>
					<dim>88</dim>
				</port>
			</output>
		</layer>
		<layer id="315" name="572" type="ReLU" version="opset1">
			<input>
				<port id="0">
					<dim>1</dim>
					<dim>32</dim>
					<dim>88</dim>
					<dim>88</dim>
				</port>
			</input>
			<output>
				<port id="1" precision="FP16">
					<dim>1</dim>
					<dim>32</dim>
					<dim>88</dim>
					<dim>88</dim>
				</port>
			</output>
		</layer>
		<layer id="316" name="Copy_onnx_initializer_node_bbox_head.cls_convs.3.conv.weight/Output_0/Data__const" type="Const" version="opset1">
			<data element_type="f16" offset="3697056" shape="32,32,3,3" size="18432"/>
			<output>
				<port id="1" precision="FP16">
					<dim>32</dim>
					<dim>32</dim>
					<dim>3</dim>
					<dim>3</dim>
				</port>
			</output>
		</layer>
		<layer id="317" name="573" type="Convolution" version="opset1">
			<data dilations="1,1" output_padding="0,0" pads_begin="1,1" pads_end="1,1" strides="1,1"/>
			<input>
				<port id="0">
					<dim>1</dim>
					<dim>32</dim>
					<dim>88</dim>
					<dim>88</dim>
				</port>
				<port id="1">
					<dim>32</dim>
					<dim>32</dim>
					<dim>3</dim>
					<dim>3</dim>
				</port>
			</input>
			<output>
				<port id="2" precision="FP16">
					<dim>1</dim>
					<dim>32</dim>
					<dim>88</dim>
					<dim>88</dim>
				</port>
			</output>
		</layer>
		<layer id="318" name="574/Ins_Norm/MVN_" type="MVN" version="opset2">
			<data across_channels="0" eps="9.999999747378752e-06" normalize_variance="1"/>
			<input>
				<port id="0">
					<dim>1</dim>
					<dim>32</dim>
					<dim>88</dim>
					<dim>88</dim>
				</port>
			</input>
			<output>
				<port id="1" precision="FP16">
					<dim>1</dim>
					<dim>32</dim>
					<dim>88</dim>
					<dim>88</dim>
				</port>
			</output>
		</layer>
		<layer id="319" name="Copy_onnx_initializer_node_bbox_head.cls_convs.3.gn.weight/Output_0/Data_5829/copy/copy_const" type="Const" version="opset1">
			<data element_type="f16" offset="3715488" shape="1,32,1,1" size="64"/>
			<output>
				<port id="1" precision="FP16">
					<dim>1</dim>
					<dim>32</dim>
					<dim>1</dim>
					<dim>1</dim>
				</port>
			</output>
		</layer>
		<layer id="320" name="574/Ins_Norm/mul_" type="Multiply" version="opset1">
			<input>
				<port id="0">
					<dim>1</dim>
					<dim>32</dim>
					<dim>88</dim>
					<dim>88</dim>
				</port>
				<port id="1">
					<dim>1</dim>
					<dim>32</dim>
					<dim>1</dim>
					<dim>1</dim>
				</port>
			</input>
			<output>
				<port id="2" precision="FP16">
					<dim>1</dim>
					<dim>32</dim>
					<dim>88</dim>
					<dim>88</dim>
				</port>
			</output>
		</layer>
		<layer id="321" name="Copy_onnx_initializer_node_bbox_head.cls_convs.3.gn.bias/Output_0/Data_5824/copy/copy_const" type="Const" version="opset1">
			<data element_type="f16" offset="3715552" shape="1,32,1,1" size="64"/>
			<output>
				<port id="1" precision="FP16">
					<dim>1</dim>
					<dim>32</dim>
					<dim>1</dim>
					<dim>1</dim>
				</port>
			</output>
		</layer>
		<layer id="322" name="574/Ins_Norm/add_" type="Add" version="opset1">
			<input>
				<port id="0">
					<dim>1</dim>
					<dim>32</dim>
					<dim>88</dim>
					<dim>88</dim>
				</port>
				<port id="1">
					<dim>1</dim>
					<dim>32</dim>
					<dim>1</dim>
					<dim>1</dim>
				</port>
			</input>
			<output>
				<port id="2" precision="FP16">
					<dim>1</dim>
					<dim>32</dim>
					<dim>88</dim>
					<dim>88</dim>
				</port>
			</output>
		</layer>
		<layer id="323" name="575" type="ReLU" version="opset1">
			<input>
				<port id="0">
					<dim>1</dim>
					<dim>32</dim>
					<dim>88</dim>
					<dim>88</dim>
				</port>
			</input>
			<output>
				<port id="1" precision="FP16">
					<dim>1</dim>
					<dim>32</dim>
					<dim>88</dim>
					<dim>88</dim>
				</port>
			</output>
		</layer>
		<layer id="324" name="Copy_onnx_initializer_node_bbox_head.fcos_cls.weight/Output_0/Data__const" type="Const" version="opset1">
			<data element_type="f16" offset="3715616" shape="1,32,3,3" size="576"/>
			<output>
				<port id="1" precision="FP16">
					<dim>1</dim>
					<dim>32</dim>
					<dim>3</dim>
					<dim>3</dim>
				</port>
			</output>
		</layer>
		<layer id="325" name="576/WithoutBiases" type="Convolution" version="opset1">
			<data dilations="1,1" output_padding="0,0" pads_begin="1,1" pads_end="1,1" strides="1,1"/>
			<input>
				<port id="0">
					<dim>1</dim>
					<dim>32</dim>
					<dim>88</dim>
					<dim>88</dim>
				</port>
				<port id="1">
					<dim>1</dim>
					<dim>32</dim>
					<dim>3</dim>
					<dim>3</dim>
				</port>
			</input>
			<output>
				<port id="2" precision="FP16">
					<dim>1</dim>
					<dim>1</dim>
					<dim>88</dim>
					<dim>88</dim>
				</port>
			</output>
		</layer>
		<layer id="326" name="576/Dims18928/copy_const" type="Const" version="opset1">
			<data element_type="f16" offset="3716192" shape="1,1,1,1" size="2"/>
			<output>
				<port id="1" precision="FP16">
					<dim>1</dim>
					<dim>1</dim>
					<dim>1</dim>
					<dim>1</dim>
				</port>
			</output>
		</layer>
		<layer id="327" name="576" type="Add" version="opset1">
			<input>
				<port id="0">
					<dim>1</dim>
					<dim>1</dim>
					<dim>88</dim>
					<dim>88</dim>
				</port>
				<port id="1">
					<dim>1</dim>
					<dim>1</dim>
					<dim>1</dim>
					<dim>1</dim>
				</port>
			</input>
			<output>
				<port id="2" precision="FP16">
					<dim>1</dim>
					<dim>1</dim>
					<dim>88</dim>
					<dim>88</dim>
				</port>
			</output>
		</layer>
		<layer id="328" name="10251887/Cast_163951_const" type="Const" version="opset1">
			<data element_type="i32" offset="3716194" shape="" size="4"/>
			<output>
				<port id="1" precision="I32"/>
			</output>
		</layer>
		<layer id="329" name="10251887/Cast_263953_const" type="Const" version="opset1">
			<data element_type="i64" offset="3716198" shape="" size="8"/>
			<output>
				<port id="1" precision="I64"/>
			</output>
		</layer>
		<layer id="330" name="10251887" type="Gather" version="opset1">
			<input>
				<port id="0">
					<dim>1</dim>
					<dim>1</dim>
					<dim>88</dim>
					<dim>88</dim>
				</port>
				<port id="1"/>
				<port id="2"/>
			</input>
			<output>
				<port id="3" precision="FP16">
					<dim>1</dim>
					<dim>88</dim>
					<dim>88</dim>
				</port>
			</output>
		</layer>
		<layer id="331" name="1054/Cast_163653_const" type="Const" version="opset1">
			<data element_type="i64" offset="3716206" shape="3" size="24"/>
			<output>
				<port id="1" precision="I64">
					<dim>3</dim>
				</port>
			</output>
		</layer>
		<layer id="332" name="1054" type="Transpose" version="opset1">
			<input>
				<port id="0">
					<dim>1</dim>
					<dim>88</dim>
					<dim>88</dim>
				</port>
				<port id="1">
					<dim>3</dim>
				</port>
			</input>
			<output>
				<port id="2" precision="FP16">
					<dim>88</dim>
					<dim>88</dim>
					<dim>1</dim>
				</port>
			</output>
		</layer>
		<layer id="333" name="1056/Cast_164141_const" type="Const" version="opset1">
			<data element_type="i64" offset="3716230" shape="2" size="16"/>
			<output>
				<port id="1" precision="I64">
					<dim>2</dim>
				</port>
			</output>
		</layer>
		<layer id="334" name="1056" type="Reshape" version="opset1">
			<data special_zero="True"/>
			<input>
				<port id="0">
					<dim>88</dim>
					<dim>88</dim>
					<dim>1</dim>
				</port>
				<port id="1">
					<dim>2</dim>
				</port>
			</input>
			<output>
				<port id="2" precision="FP16">
					<dim>7744</dim>
					<dim>1</dim>
				</port>
			</output>
		</layer>
		<layer id="335" name="1057" type="Sigmoid" version="opset1">
			<input>
				<port id="0">
					<dim>7744</dim>
					<dim>1</dim>
				</port>
			</input>
			<output>
				<port id="1" precision="FP16">
					<dim>7744</dim>
					<dim>1</dim>
				</port>
			</output>
		</layer>
		<layer id="336" name="Copy_onnx_initializer_node_bbox_head.fcos_centerness.weight/Output_0/Data__const" type="Const" version="opset1">
			<data element_type="f16" offset="3716246" shape="1,32,3,3" size="576"/>
			<output>
				<port id="1" precision="FP16">
					<dim>1</dim>
					<dim>32</dim>
					<dim>3</dim>
					<dim>3</dim>
				</port>
			</output>
		</layer>
		<layer id="337" name="589/WithoutBiases" type="Convolution" version="opset1">
			<data dilations="1,1" output_padding="0,0" pads_begin="1,1" pads_end="1,1" strides="1,1"/>
			<input>
				<port id="0">
					<dim>1</dim>
					<dim>32</dim>
					<dim>88</dim>
					<dim>88</dim>
				</port>
				<port id="1">
					<dim>1</dim>
					<dim>32</dim>
					<dim>3</dim>
					<dim>3</dim>
				</port>
			</input>
			<output>
				<port id="2" precision="FP16">
					<dim>1</dim>
					<dim>1</dim>
					<dim>88</dim>
					<dim>88</dim>
				</port>
			</output>
		</layer>
		<layer id="338" name="589/Dims19000/copy_const" type="Const" version="opset1">
			<data element_type="f16" offset="3716822" shape="1,1,1,1" size="2"/>
			<output>
				<port id="1" precision="FP16">
					<dim>1</dim>
					<dim>1</dim>
					<dim>1</dim>
					<dim>1</dim>
				</port>
			</output>
		</layer>
		<layer id="339" name="589" type="Add" version="opset1">
			<input>
				<port id="0">
					<dim>1</dim>
					<dim>1</dim>
					<dim>88</dim>
					<dim>88</dim>
				</port>
				<port id="1">
					<dim>1</dim>
					<dim>1</dim>
					<dim>1</dim>
					<dim>1</dim>
				</port>
			</input>
			<output>
				<port id="2" precision="FP16">
					<dim>1</dim>
					<dim>1</dim>
					<dim>88</dim>
					<dim>88</dim>
				</port>
			</output>
		</layer>
		<layer id="340" name="10451901/Cast_163737_const" type="Const" version="opset1">
			<data element_type="i32" offset="3716194" shape="" size="4"/>
			<output>
				<port id="1" precision="I32"/>
			</output>
		</layer>
		<layer id="341" name="10451901/Cast_263739_const" type="Const" version="opset1">
			<data element_type="i64" offset="3716198" shape="" size="8"/>
			<output>
				<port id="1" precision="I64"/>
			</output>
		</layer>
		<layer id="342" name="10451901" type="Gather" version="opset1">
			<input>
				<port id="0">
					<dim>1</dim>
					<dim>1</dim>
					<dim>88</dim>
					<dim>88</dim>
				</port>
				<port id="1"/>
				<port id="2"/>
			</input>
			<output>
				<port id="3" precision="FP16">
					<dim>1</dim>
					<dim>88</dim>
					<dim>88</dim>
				</port>
			</output>
		</layer>
		<layer id="343" name="1058/Cast_163775_const" type="Const" version="opset1">
			<data element_type="i64" offset="3716206" shape="3" size="24"/>
			<output>
				<port id="1" precision="I64">
					<dim>3</dim>
				</port>
			</output>
		</layer>
		<layer id="344" name="1058" type="Transpose" version="opset1">
			<input>
				<port id="0">
					<dim>1</dim>
					<dim>88</dim>
					<dim>88</dim>
				</port>
				<port id="1">
					<dim>3</dim>
				</port>
			</input>
			<output>
				<port id="2" precision="FP16">
					<dim>88</dim>
					<dim>88</dim>
					<dim>1</dim>
				</port>
			</output>
		</layer>
		<layer id="345" name="1060/Cast_163927_const" type="Const" version="opset1">
			<data element_type="i64" offset="3716824" shape="1" size="8"/>
			<output>
				<port id="1" precision="I64">
					<dim>1</dim>
				</port>
			</output>
		</layer>
		<layer id="346" name="1060" type="Reshape" version="opset1">
			<data special_zero="True"/>
			<input>
				<port id="0">
					<dim>88</dim>
					<dim>88</dim>
					<dim>1</dim>
				</port>
				<port id="1">
					<dim>1</dim>
				</port>
			</input>
			<output>
				<port id="2" precision="FP16">
					<dim>7744</dim>
				</port>
			</output>
		</layer>
		<layer id="347" name="1061" type="Sigmoid" version="opset1">
			<input>
				<port id="0">
					<dim>7744</dim>
				</port>
			</input>
			<output>
				<port id="1" precision="FP16">
					<dim>7744</dim>
				</port>
			</output>
		</layer>
		<layer id="348" name="1065/Dims/Output_0/Data__const" type="Const" version="opset1">
			<data element_type="i64" offset="3622864" shape="1" size="8"/>
			<output>
				<port id="1" precision="I64">
					<dim>1</dim>
				</port>
			</output>
		</layer>
		<layer id="349" name="1065/Unsqueeze" type="Unsqueeze" version="opset1">
			<input>
				<port id="0">
					<dim>7744</dim>
				</port>
				<port id="1">
					<dim>1</dim>
				</port>
			</input>
			<output>
				<port id="2" precision="FP16">
					<dim>7744</dim>
					<dim>1</dim>
				</port>
			</output>
		</layer>
		<layer id="350" name="1066" type="Multiply" version="opset1">
			<input>
				<port id="0">
					<dim>7744</dim>
					<dim>1</dim>
				</port>
				<port id="1">
					<dim>7744</dim>
					<dim>1</dim>
				</port>
			</input>
			<output>
				<port id="2" precision="FP16">
					<dim>7744</dim>
					<dim>1</dim>
				</port>
			</output>
		</layer>
		<layer id="351" name="1067/Cast_164261_const" type="Const" version="opset1">
			<data element_type="i64" offset="3622864" shape="1" size="8"/>
			<output>
				<port id="1" precision="I64">
					<dim>1</dim>
				</port>
			</output>
		</layer>
		<layer id="352" name="1067" type="ReduceMax" version="opset1">
			<data keep_dims="False"/>
			<input>
				<port id="0">
					<dim>7744</dim>
					<dim>1</dim>
				</port>
				<port id="1">
					<dim>1</dim>
				</port>
			</input>
			<output>
				<port id="2" precision="FP16">
					<dim>7744</dim>
				</port>
			</output>
		</layer>
		<layer id="353" name="1072/Output_0/Data__const" type="Const" version="opset1">
			<data element_type="i64" offset="3716832" shape="1" size="8"/>
			<output>
				<port id="1" precision="I64">
					<dim>1</dim>
				</port>
			</output>
		</layer>
		<layer id="354" name="1068" type="ShapeOf" version="opset3">
			<data output_type="i64"/>
			<input>
				<port id="0">
					<dim>7744</dim>
				</port>
			</input>
			<output>
				<port id="1" precision="I64">
					<dim>1</dim>
				</port>
			</output>
		</layer>
		<layer id="355" name="10701979/Cast_163709_const" type="Const" version="opset1">
			<data element_type="i32" offset="3716194" shape="" size="4"/>
			<output>
				<port id="1" precision="I32"/>
			</output>
		</layer>
		<layer id="356" name="10701979/Cast_263711_const" type="Const" version="opset1">
			<data element_type="i64" offset="3716198" shape="" size="8"/>
			<output>
				<port id="1" precision="I64"/>
			</output>
		</layer>
		<layer id="357" name="10701979" type="Gather" version="opset1">
			<input>
				<port id="0">
					<dim>1</dim>
				</port>
				<port id="1"/>
				<port id="2"/>
			</input>
			<output>
				<port id="3" precision="I64"/>
			</output>
		</layer>
		<layer id="358" name="1071/Dims/Output_0/Data__const" type="Const" version="opset1">
			<data element_type="i64" offset="3716198" shape="1" size="8"/>
			<output>
				<port id="1" precision="I64">
					<dim>1</dim>
				</port>
			</output>
		</layer>
		<layer id="359" name="1071/Unsqueeze" type="Unsqueeze" version="opset1">
			<input>
				<port id="0"/>
				<port id="1">
					<dim>1</dim>
				</port>
			</input>
			<output>
				<port id="2" precision="I64">
					<dim>1</dim>
				</port>
			</output>
		</layer>
		<layer id="360" name="1073" type="Concat" version="opset1">
			<data axis="0"/>
			<input>
				<port id="0">
					<dim>1</dim>
				</port>
				<port id="1">
					<dim>1</dim>
				</port>
			</input>
			<output>
				<port id="2" precision="I64">
					<dim>2</dim>
				</port>
			</output>
		</layer>
		<layer id="361" name="1074" type="Convert" version="opset1">
			<data destination_type="i32"/>
			<input>
				<port id="0">
					<dim>2</dim>
				</port>
			</input>
			<output>
				<port id="1" precision="I32">
					<dim>2</dim>
				</port>
			</output>
		</layer>
		<layer id="362" name="1075/Cast_164001_const" type="Const" version="opset1">
			<data element_type="i64" offset="3716198" shape="1" size="8"/>
			<output>
				<port id="1" precision="I64">
					<dim>1</dim>
				</port>
			</output>
		</layer>
		<layer id="363" name="1075" type="ReduceMin" version="opset1">
			<data keep_dims="False"/>
			<input>
				<port id="0">
					<dim>2</dim>
				</port>
				<port id="1">
					<dim>1</dim>
				</port>
			</input>
			<output>
				<port id="2" precision="I32"/>
			</output>
		</layer>
		<layer id="364" name="1076" type="Convert" version="opset1">
			<data destination_type="i64"/>
			<input>
				<port id="0"/>
			</input>
			<output>
				<port id="1" precision="I64"/>
			</output>
		</layer>
		<layer id="365" name="1077/Dims/Output_0/Data__const" type="Const" version="opset1">
			<data element_type="i64" offset="3716198" shape="1" size="8"/>
			<output>
				<port id="1" precision="I64">
					<dim>1</dim>
				</port>
			</output>
		</layer>
		<layer id="366" name="1077/Unsqueeze" type="Unsqueeze" version="opset1">
			<input>
				<port id="0"/>
				<port id="1">
					<dim>1</dim>
				</port>
			</input>
			<output>
				<port id="2" precision="I64">
					<dim>1</dim>
				</port>
			</output>
		</layer>
		<layer id="367" name="50269/Cast_164175_const" type="Const" version="opset1">
			<data element_type="i64" offset="3622864" shape="1" size="8"/>
			<output>
				<port id="1" precision="I64">
					<dim>1</dim>
				</port>
			</output>
		</layer>
		<layer id="368" name="50269" type="Reshape" version="opset1">
			<data special_zero="True"/>
			<input>
				<port id="0">
					<dim>1</dim>
				</port>
				<port id="1">
					<dim>1</dim>
				</port>
			</input>
			<output>
				<port id="2" precision="I64">
					<dim>1</dim>
				</port>
			</output>
		</layer>
		<layer id="369" name="50305/value50307_const" type="Const" version="opset1">
			<data element_type="i64" offset="3716198" shape="1" size="8"/>
			<output>
				<port id="1" precision="I64">
					<dim>1</dim>
				</port>
			</output>
		</layer>
		<layer id="370" name="50305" type="Squeeze" version="opset1">
			<input>
				<port id="0">
					<dim>1</dim>
				</port>
				<port id="1">
					<dim>1</dim>
				</port>
			</input>
			<output>
				<port id="2" precision="I64"/>
			</output>
		</layer>
		<layer id="371" name="1078_1079/Cast_1" type="Convert" version="opset1">
			<data destination_type="i32"/>
			<input>
				<port id="0"/>
			</input>
			<output>
				<port id="1" precision="I32"/>
			</output>
		</layer>
		<layer id="372" name="1078_1079" type="TopK" version="opset3">
			<data axis="0" index_element_type="i32" mode="max" sort="value"/>
			<input>
				<port id="0">
					<dim>7744</dim>
				</port>
				<port id="1"/>
			</input>
			<output>
				<port id="2" precision="FP16">
					<dim>1000</dim>
				</port>
				<port id="3" precision="I32">
					<dim>1000</dim>
				</port>
			</output>
		</layer>
		<layer id="373" name="1078_1079/Result_port_0/" type="Result" version="opset1">
			<input>
				<port id="0">
					<dim>1000</dim>
				</port>
			</input>
		</layer>
		<layer id="374" name="onnx_initializer_node_neck.fpn_convs.1.conv.weight/Output_0/Data__const" type="Const" version="opset1">
			<data element_type="f16" offset="3716840" shape="32,32,3,3" size="18432"/>
			<output>
				<port id="1" precision="FP16">
					<dim>32</dim>
					<dim>32</dim>
					<dim>3</dim>
					<dim>3</dim>
				</port>
			</output>
		</layer>
		<layer id="375" name="559/WithoutBiases" type="Convolution" version="opset1">
			<data dilations="1,1" output_padding="0,0" pads_begin="1,1" pads_end="1,1" strides="1,1"/>
			<input>
				<port id="0">
					<dim>1</dim>
					<dim>32</dim>
					<dim>44</dim>
					<dim>44</dim>
				</port>
				<port id="1">
					<dim>32</dim>
					<dim>32</dim>
					<dim>3</dim>
					<dim>3</dim>
				</port>
			</input>
			<output>
				<port id="2" precision="FP16">
					<dim>1</dim>
					<dim>32</dim>
					<dim>44</dim>
					<dim>44</dim>
				</port>
			</output>
		</layer>
		<layer id="376" name="559/Dims18994/copy_const" type="Const" version="opset1">
			<data element_type="f16" offset="3735272" shape="1,32,1,1" size="64"/>
			<output>
				<port id="1" precision="FP16">
					<dim>1</dim>
					<dim>32</dim>
					<dim>1</dim>
					<dim>1</dim>
				</port>
			</output>
		</layer>
		<layer id="377" name="559" type="Add" version="opset1">
			<input>
				<port id="0">
					<dim>1</dim>
					<dim>32</dim>
					<dim>44</dim>
					<dim>44</dim>
				</port>
				<port id="1">
					<dim>1</dim>
					<dim>32</dim>
					<dim>1</dim>
					<dim>1</dim>
				</port>
			</input>
			<output>
				<port id="2" precision="FP16">
					<dim>1</dim>
					<dim>32</dim>
					<dim>44</dim>
					<dim>44</dim>
				</port>
			</output>
		</layer>
		<layer id="378" name="Copy_onnx_initializer_node_bbox_head.cls_convs.0.conv.weight/Output_0/Data_5773_const" type="Const" version="opset1">
			<data element_type="f16" offset="3641376" shape="32,32,3,3" size="18432"/>
			<output>
				<port id="1" precision="FP16">
					<dim>32</dim>
					<dim>32</dim>
					<dim>3</dim>
					<dim>3</dim>
				</port>
			</output>
		</layer>
		<layer id="379" name="594" type="Convolution" version="opset1">
			<data dilations="1,1" output_padding="0,0" pads_begin="1,1" pads_end="1,1" strides="1,1"/>
			<input>
				<port id="0">
					<dim>1</dim>
					<dim>32</dim>
					<dim>44</dim>
					<dim>44</dim>
				</port>
				<port id="1">
					<dim>32</dim>
					<dim>32</dim>
					<dim>3</dim>
					<dim>3</dim>
				</port>
…
		<edge from-layer="1088" from-port="1" to-layer="1089" to-port="1"/>
		<edge from-layer="1089" from-port="2" to-layer="1091" to-port="0"/>
		<edge from-layer="1090" from-port="1" to-layer="1091" to-port="1"/>
		<edge from-layer="1091" from-port="2" to-layer="1093" to-port="0"/>
		<edge from-layer="1092" from-port="1" to-layer="1093" to-port="1"/>
		<edge from-layer="1081" from-port="1" to-layer="1094" to-port="0"/>
		<edge from-layer="1093" from-port="2" to-layer="1094" to-port="1"/>
		<edge from-layer="1094" from-port="2" to-layer="1095" to-port="0"/>
		<edge from-layer="1095" from-port="1" to-layer="1097" to-port="0"/>
		<edge from-layer="1096" from-port="1" to-layer="1097" to-port="1"/>
		<edge from-layer="1097" from-port="2" to-layer="1099" to-port="0"/>
		<edge from-layer="1098" from-port="1" to-layer="1099" to-port="1"/>
		<edge from-layer="1099" from-port="2" to-layer="1101" to-port="0"/>
		<edge from-layer="1100" from-port="1" to-layer="1101" to-port="1"/>
		<edge from-layer="1101" from-port="2" to-layer="1103" to-port="0"/>
		<edge from-layer="1102" from-port="1" to-layer="1103" to-port="1"/>
		<edge from-layer="1103" from-port="2" to-layer="1104" to-port="0"/>
		<edge from-layer="1104" from-port="1" to-layer="1106" to-port="0"/>
		<edge from-layer="1105" from-port="1" to-layer="1106" to-port="1"/>
		<edge from-layer="1106" from-port="2" to-layer="1107" to-port="0"/>
		<edge from-layer="1107" from-port="1" to-layer="1108" to-port="0"/>
		<edge from-layer="1078" from-port="1" to-layer="1108" to-port="1"/>
		<edge from-layer="1080" from-port="2" to-layer="1109" to-port="0"/>
		<edge from-layer="1108" from-port="2" to-layer="1109" to-port="1"/>
		<edge from-layer="1109" from-port="2" to-layer="1111" to-port="0"/>
		<edge from-layer="1110" from-port="1" to-layer="1111" to-port="1"/>
		<edge from-layer="1111" from-port="2" to-layer="1113" to-port="0"/>
		<edge from-layer="1112" from-port="1" to-layer="1113" to-port="1"/>
		<edge from-layer="1107" from-port="1" to-layer="1115" to-port="0"/>
		<edge from-layer="1114" from-port="1" to-layer="1115" to-port="1"/>
		<edge from-layer="1106" from-port="2" to-layer="1116" to-port="0"/>
		<edge from-layer="1115" from-port="2" to-layer="1116" to-port="1"/>
		<edge from-layer="1116" from-port="2" to-layer="1117" to-port="0"/>
		<edge from-layer="1108" from-port="2" to-layer="1117" to-port="1"/>
		<edge from-layer="1117" from-port="2" to-layer="1119" to-port="0"/>
		<edge from-layer="1118" from-port="1" to-layer="1119" to-port="1"/>
		<edge from-layer="1119" from-port="2" to-layer="1121" to-port="0"/>
		<edge from-layer="1120" from-port="1" to-layer="1121" to-port="1"/>
		<edge from-layer="1113" from-port="2" to-layer="1122" to-port="0"/>
		<edge from-layer="1121" from-port="2" to-layer="1122" to-port="1"/>
		<edge from-layer="1122" from-port="2" to-layer="1124" to-port="0"/>
		<edge from-layer="1123" from-port="1" to-layer="1124" to-port="1"/>
		<edge from-layer="544" from-port="3" to-layer="1125" to-port="0"/>
		<edge from-layer="1125" from-port="1" to-layer="1126" to-port="0"/>
		<edge from-layer="1124" from-port="2" to-layer="1128" to-port="0"/>
		<edge from-layer="1126" from-port="1" to-layer="1128" to-port="1"/>
		<edge from-layer="1127" from-port="1" to-layer="1128" to-port="2"/>
		<edge from-layer="1128" from-port="3" to-layer="1131" to-port="0"/>
		<edge from-layer="1129" from-port="1" to-layer="1131" to-port="1"/>
		<edge from-layer="1130" from-port="1" to-layer="1131" to-port="2"/>
		<edge from-layer="463" from-port="2" to-layer="1133" to-port="0"/>
		<edge from-layer="1132" from-port="1" to-layer="1133" to-port="1"/>
		<edge from-layer="1133" from-port="2" to-layer="1134" to-port="0"/>
		<edge from-layer="1134" from-port="1" to-layer="1136" to-port="0"/>
		<edge from-layer="1135" from-port="1" to-layer="1136" to-port="1"/>
		<edge from-layer="1136" from-port="2" to-layer="1138" to-port="0"/>
		<edge from-layer="1137" from-port="1" to-layer="1138" to-port="1"/>
		<edge from-layer="1138" from-port="2" to-layer="1139" to-port="0"/>
		<edge from-layer="1139" from-port="1" to-layer="1141" to-port="0"/>
		<edge from-layer="1140" from-port="1" to-layer="1141" to-port="1"/>
		<edge from-layer="1141" from-port="2" to-layer="1142" to-port="0"/>
		<edge from-layer="1142" from-port="1" to-layer="1144" to-port="0"/>
		<edge from-layer="1143" from-port="1" to-layer="1144" to-port="1"/>
		<edge from-layer="1144" from-port="2" to-layer="1146" to-port="0"/>
		<edge from-layer="1145" from-port="1" to-layer="1146" to-port="1"/>
		<edge from-layer="1146" from-port="2" to-layer="1147" to-port="0"/>
		<edge from-layer="1147" from-port="1" to-layer="1149" to-port="0"/>
		<edge from-layer="1148" from-port="1" to-layer="1149" to-port="1"/>
		<edge from-layer="1149" from-port="2" to-layer="1150" to-port="0"/>
		<edge from-layer="1150" from-port="1" to-layer="1152" to-port="0"/>
		<edge from-layer="1151" from-port="1" to-layer="1152" to-port="1"/>
		<edge from-layer="1152" from-port="2" to-layer="1154" to-port="0"/>
		<edge from-layer="1153" from-port="1" to-layer="1154" to-port="1"/>
		<edge from-layer="1154" from-port="2" to-layer="1155" to-port="0"/>
		<edge from-layer="1155" from-port="1" to-layer="1157" to-port="0"/>
		<edge from-layer="1156" from-port="1" to-layer="1157" to-port="1"/>
		<edge from-layer="1157" from-port="2" to-layer="1158" to-port="0"/>
		<edge from-layer="1158" from-port="1" to-layer="1160" to-port="0"/>
		<edge from-layer="1159" from-port="1" to-layer="1160" to-port="1"/>
		<edge from-layer="1160" from-port="2" to-layer="1162" to-port="0"/>
		<edge from-layer="1161" from-port="1" to-layer="1162" to-port="1"/>
		<edge from-layer="1162" from-port="2" to-layer="1163" to-port="0"/>
		<edge from-layer="1163" from-port="1" to-layer="1165" to-port="0"/>
		<edge from-layer="1164" from-port="1" to-layer="1165" to-port="1"/>
		<edge from-layer="1165" from-port="2" to-layer="1167" to-port="0"/>
		<edge from-layer="1166" from-port="1" to-layer="1167" to-port="1"/>
		<edge from-layer="1167" from-port="2" to-layer="1168" to-port="0"/>
		<edge from-layer="1168" from-port="1" to-layer="1171" to-port="0"/>
		<edge from-layer="1169" from-port="1" to-layer="1171" to-port="1"/>
		<edge from-layer="1170" from-port="1" to-layer="1171" to-port="2"/>
		<edge from-layer="1171" from-port="3" to-layer="1173" to-port="0"/>
		<edge from-layer="1172" from-port="1" to-layer="1173" to-port="1"/>
		<edge from-layer="1173" from-port="2" to-layer="1175" to-port="0"/>
		<edge from-layer="1174" from-port="1" to-layer="1175" to-port="1"/>
		<edge from-layer="1125" from-port="1" to-layer="1176" to-port="0"/>
		<edge from-layer="1175" from-port="2" to-layer="1178" to-port="0"/>
		<edge from-layer="1176" from-port="1" to-layer="1178" to-port="1"/>
		<edge from-layer="1177" from-port="1" to-layer="1178" to-port="2"/>
		<edge from-layer="1178" from-port="3" to-layer="1181" to-port="0"/>
		<edge from-layer="1179" from-port="1" to-layer="1181" to-port="1"/>
		<edge from-layer="1180" from-port="1" to-layer="1181" to-port="2"/>
		<edge from-layer="1131" from-port="3" to-layer="1182" to-port="0"/>
		<edge from-layer="1181" from-port="3" to-layer="1182" to-port="1"/>
		<edge from-layer="1182" from-port="2" to-layer="1183" to-port="0"/>
		<edge from-layer="1183" from-port="1" to-layer="1185" to-port="0"/>
		<edge from-layer="1184" from-port="1" to-layer="1185" to-port="1"/>
		<edge from-layer="1128" from-port="3" to-layer="1188" to-port="0"/>
		<edge from-layer="1186" from-port="1" to-layer="1188" to-port="1"/>
		<edge from-layer="1187" from-port="1" to-layer="1188" to-port="2"/>
		<edge from-layer="1178" from-port="3" to-layer="1191" to-port="0"/>
		<edge from-layer="1189" from-port="1" to-layer="1191" to-port="1"/>
		<edge from-layer="1190" from-port="1" to-layer="1191" to-port="2"/>
		<edge from-layer="1188" from-port="3" to-layer="1192" to-port="0"/>
		<edge from-layer="1191" from-port="3" to-layer="1192" to-port="1"/>
		<edge from-layer="1192" from-port="2" to-layer="1193" to-port="0"/>
		<edge from-layer="1193" from-port="1" to-layer="1195" to-port="0"/>
		<edge from-layer="1194" from-port="1" to-layer="1195" to-port="1"/>
		<edge from-layer="1128" from-port="3" to-layer="1198" to-port="0"/>
		<edge from-layer="1196" from-port="1" to-layer="1198" to-port="1"/>
		<edge from-layer="1197" from-port="1" to-layer="1198" to-port="2"/>
		<edge from-layer="1178" from-port="3" to-layer="1201" to-port="0"/>
		<edge from-layer="1199" from-port="1" to-layer="1201" to-port="1"/>
		<edge from-layer="1200" from-port="1" to-layer="1201" to-port="2"/>
		<edge from-layer="1198" from-port="3" to-layer="1202" to-port="0"/>
		<edge from-layer="1201" from-port="3" to-layer="1202" to-port="1"/>
		<edge from-layer="1202" from-port="2" to-layer="1203" to-port="0"/>
		<edge from-layer="1203" from-port="1" to-layer="1205" to-port="0"/>
		<edge from-layer="1204" from-port="1" to-layer="1205" to-port="1"/>
		<edge from-layer="1128" from-port="3" to-layer="1208" to-port="0"/>
		<edge from-layer="1206" from-port="1" to-layer="1208" to-port="1"/>
		<edge from-layer="1207" from-port="1" to-layer="1208" to-port="2"/>
		<edge from-layer="1178" from-port="3" to-layer="1211" to-port="0"/>
		<edge from-layer="1209" from-port="1" to-layer="1211" to-port="1"/>
		<edge from-layer="1210" from-port="1" to-layer="1211" to-port="2"/>
		<edge from-layer="1208" from-port="3" to-layer="1212" to-port="0"/>
		<edge from-layer="1211" from-port="3" to-layer="1212" to-port="1"/>
		<edge from-layer="1212" from-port="2" to-layer="1213" to-port="0"/>
		<edge from-layer="1213" from-port="1" to-layer="1215" to-port="0"/>
		<edge from-layer="1214" from-port="1" to-layer="1215" to-port="1"/>
		<edge from-layer="1185" from-port="2" to-layer="1216" to-port="0"/>
		<edge from-layer="1195" from-port="2" to-layer="1216" to-port="1"/>
		<edge from-layer="1205" from-port="2" to-layer="1216" to-port="2"/>
		<edge from-layer="1215" from-port="2" to-layer="1216" to-port="3"/>
		<edge from-layer="585" from-port="2" to-layer="1218" to-port="0"/>
		<edge from-layer="1218" from-port="1" to-layer="1221" to-port="0"/>
		<edge from-layer="1219" from-port="1" to-layer="1221" to-port="1"/>
		<edge from-layer="1220" from-port="1" to-layer="1221" to-port="2"/>
		<edge from-layer="1221" from-port="3" to-layer="1223" to-port="0"/>
		<edge from-layer="1222" from-port="1" to-layer="1223" to-port="1"/>
		<edge from-layer="1223" from-port="2" to-layer="1225" to-port="0"/>
		<edge from-layer="1224" from-port="1" to-layer="1225" to-port="1"/>
		<edge from-layer="1225" from-port="2" to-layer="1227" to-port="0"/>
		<edge from-layer="1226" from-port="1" to-layer="1227" to-port="1"/>
		<edge from-layer="1227" from-port="2" to-layer="1229" to-port="0"/>
		<edge from-layer="1228" from-port="1" to-layer="1229" to-port="1"/>
		<edge from-layer="1217" from-port="1" to-layer="1230" to-port="0"/>
		<edge from-layer="1229" from-port="2" to-layer="1230" to-port="1"/>
		<edge from-layer="1230" from-port="2" to-layer="1231" to-port="0"/>
		<edge from-layer="1231" from-port="1" to-layer="1233" to-port="0"/>
		<edge from-layer="1232" from-port="1" to-layer="1233" to-port="1"/>
		<edge from-layer="1233" from-port="2" to-layer="1235" to-port="0"/>
		<edge from-layer="1234" from-port="1" to-layer="1235" to-port="1"/>
		<edge from-layer="1235" from-port="2" to-layer="1237" to-port="0"/>
		<edge from-layer="1236" from-port="1" to-layer="1237" to-port="1"/>
		<edge from-layer="1237" from-port="2" to-layer="1239" to-port="0"/>
		<edge from-layer="1238" from-port="1" to-layer="1239" to-port="1"/>
		<edge from-layer="1239" from-port="2" to-layer="1240" to-port="0"/>
		<edge from-layer="1240" from-port="1" to-layer="1242" to-port="0"/>
		<edge from-layer="1241" from-port="1" to-layer="1242" to-port="1"/>
		<edge from-layer="1242" from-port="2" to-layer="1244" to-port="0"/>
		<edge from-layer="1243" from-port="1" to-layer="1245" to-port="0"/>
		<edge from-layer="1244" from-port="1" to-layer="1245" to-port="1"/>
		<edge from-layer="1242" from-port="2" to-layer="1246" to-port="0"/>
		<edge from-layer="1245" from-port="2" to-layer="1246" to-port="1"/>
		<edge from-layer="585" from-port="2" to-layer="1248" to-port="0"/>
		<edge from-layer="1248" from-port="1" to-layer="1251" to-port="0"/>
		<edge from-layer="1249" from-port="1" to-layer="1251" to-port="1"/>
		<edge from-layer="1250" from-port="1" to-layer="1251" to-port="2"/>
		<edge from-layer="1251" from-port="3" to-layer="1253" to-port="0"/>
		<edge from-layer="1252" from-port="1" to-layer="1253" to-port="1"/>
		<edge from-layer="1253" from-port="2" to-layer="1255" to-port="0"/>
		<edge from-layer="1254" from-port="1" to-layer="1255" to-port="1"/>
		<edge from-layer="1255" from-port="2" to-layer="1257" to-port="0"/>
		<edge from-layer="1256" from-port="1" to-layer="1257" to-port="1"/>
		<edge from-layer="1257" from-port="2" to-layer="1259" to-port="0"/>
		<edge from-layer="1258" from-port="1" to-layer="1259" to-port="1"/>
		<edge from-layer="1247" from-port="1" to-layer="1260" to-port="0"/>
		<edge from-layer="1259" from-port="2" to-layer="1260" to-port="1"/>
		<edge from-layer="1260" from-port="2" to-layer="1261" to-port="0"/>
		<edge from-layer="1261" from-port="1" to-layer="1263" to-port="0"/>
		<edge from-layer="1262" from-port="1" to-layer="1263" to-port="1"/>
		<edge from-layer="1263" from-port="2" to-layer="1265" to-port="0"/>
		<edge from-layer="1264" from-port="1" to-layer="1265" to-port="1"/>
		<edge from-layer="1265" from-port="2" to-layer="1267" to-port="0"/>
		<edge from-layer="1266" from-port="1" to-layer="1267" to-port="1"/>
		<edge from-layer="1267" from-port="2" to-layer="1269" to-port="0"/>
		<edge from-layer="1268" from-port="1" to-layer="1269" to-port="1"/>
		<edge from-layer="1269" from-port="2" to-layer="1270" to-port="0"/>
		<edge from-layer="1270" from-port="1" to-layer="1272" to-port="0"/>
		<edge from-layer="1271" from-port="1" to-layer="1272" to-port="1"/>
		<edge from-layer="1272" from-port="2" to-layer="1273" to-port="0"/>
		<edge from-layer="1273" from-port="1" to-layer="1274" to-port="0"/>
		<edge from-layer="1244" from-port="1" to-layer="1274" to-port="1"/>
		<edge from-layer="1246" from-port="2" to-layer="1275" to-port="0"/>
		<edge from-layer="1274" from-port="2" to-layer="1275" to-port="1"/>
		<edge from-layer="1275" from-port="2" to-layer="1277" to-port="0"/>
		<edge from-layer="1276" from-port="1" to-layer="1277" to-port="1"/>
		<edge from-layer="1277" from-port="2" to-layer="1279" to-port="0"/>
		<edge from-layer="1278" from-port="1" to-layer="1279" to-port="1"/>
		<edge from-layer="1273" from-port="1" to-layer="1281" to-port="0"/>
		<edge from-layer="1280" from-port="1" to-layer="1281" to-port="1"/>
		<edge from-layer="1272" from-port="2" to-layer="1282" to-port="0"/>
		<edge from-layer="1281" from-port="2" to-layer="1282" to-port="1"/>
		<edge from-layer="1282" from-port="2" to-layer="1283" to-port="0"/>
		<edge from-layer="1274" from-port="2" to-layer="1283" to-port="1"/>
		<edge from-layer="1283" from-port="2" to-layer="1285" to-port="0"/>
		<edge from-layer="1284" from-port="1" to-layer="1285" to-port="1"/>
		<edge from-layer="1285" from-port="2" to-layer="1287" to-port="0"/>
		<edge from-layer="1286" from-port="1" to-layer="1287" to-port="1"/>
		<edge from-layer="1279" from-port="2" to-layer="1288" to-port="0"/>
		<edge from-layer="1287" from-port="2" to-layer="1288" to-port="1"/>
		<edge from-layer="1288" from-port="2" to-layer="1290" to-port="0"/>
		<edge from-layer="1289" from-port="1" to-layer="1290" to-port="1"/>
		<edge from-layer="630" from-port="3" to-layer="1291" to-port="0"/>
		<edge from-layer="1291" from-port="1" to-layer="1292" to-port="0"/>
		<edge from-layer="1290" from-port="2" to-layer="1294" to-port="0"/>
		<edge from-layer="1292" from-port="1" to-layer="1294" to-port="1"/>
		<edge from-layer="1293" from-port="1" to-layer="1294" to-port="2"/>
		<edge from-layer="1294" from-port="3" to-layer="1297" to-port="0"/>
		<edge from-layer="1295" from-port="1" to-layer="1297" to-port="1"/>
		<edge from-layer="1296" from-port="1" to-layer="1297" to-port="2"/>
		<edge from-layer="549" from-port="2" to-layer="1299" to-port="0"/>
		<edge from-layer="1298" from-port="1" to-layer="1299" to-port="1"/>
		<edge from-layer="1299" from-port="2" to-layer="1300" to-port="0"/>
		<edge from-layer="1300" from-port="1" to-layer="1302" to-port="0"/>
		<edge from-layer="1301" from-port="1" to-layer="1302" to-port="1"/>
		<edge from-layer="1302" from-port="2" to-layer="1304" to-port="0"/>
		<edge from-layer="1303" from-port="1" to-layer="1304" to-port="1"/>
		<edge from-layer="1304" from-port="2" to-layer="1305" to-port="0"/>
		<edge from-layer="1305" from-port="1" to-layer="1307" to-port="0"/>
		<edge from-layer="1306" from-port="1" to-layer="1307" to-port="1"/>
		<edge from-layer="1307" from-port="2" to-layer="1308" to-port="0"/>
		<edge from-layer="1308" from-port="1" to-layer="1310" to-port="0"/>
		<edge from-layer="1309" from-port="1" to-layer="1310" to-port="1"/>
		<edge from-layer="1310" from-port="2" to-layer="1312" to-port="0"/>
		<edge from-layer="1311" from-port="1" to-layer="1312" to-port="1"/>
		<edge from-layer="1312" from-port="2" to-layer="1313" to-port="0"/>
		<edge from-layer="1313" from-port="1" to-layer="1315" to-port="0"/>
		<edge from-layer="1314" from-port="1" to-layer="1315" to-port="1"/>
		<edge from-layer="1315" from-port="2" to-layer="1316" to-port="0"/>
		<edge from-layer="1316" from-port="1" to-layer="1318" to-port="0"/>
		<edge from-layer="1317" from-port="1" to-layer="1318" to-port="1"/>
		<edge from-layer="1318" from-port="2" to-layer="1320" to-port="0"/>
		<edge from-layer="1319" from-port="1" to-layer="1320" to-port="1"/>
		<edge from-layer="1320" from-port="2" to-layer="1321" to-port="0"/>
		<edge from-layer="1321" from-port="1" to-layer="1323" to-port="0"/>
		<edge from-layer="1322" from-port="1" to-layer="1323" to-port="1"/>
		<edge from-layer="1323" from-port="2" to-layer="1324" to-port="0"/>
		<edge from-layer="1324" from-port="1" to-layer="1326" to-port="0"/>
		<edge from-layer="1325" from-port="1" to-layer="1326" to-port="1"/>
		<edge from-layer="1326" from-port="2" to-layer="1328" to-port="0"/>
		<edge from-layer="1327" from-port="1" to-layer="1328" to-port="1"/>
		<edge from-layer="1328" from-port="2" to-layer="1329" to-port="0"/>
		<edge from-layer="1329" from-port="1" to-layer="1331" to-port="0"/>
		<edge from-layer="1330" from-port="1" to-layer="1331" to-port="1"/>
		<edge from-layer="1331" from-port="2" to-layer="1333" to-port="0"/>
		<edge from-layer="1332" from-port="1" to-layer="1333" to-port="1"/>
		<edge from-layer="1333" from-port="2" to-layer="1334" to-port="0"/>
		<edge from-layer="1334" from-port="1" to-layer="1337" to-port="0"/>
		<edge from-layer="1335" from-port="1" to-layer="1337" to-port="1"/>
		<edge from-layer="1336" from-port="1" to-layer="1337" to-port="2"/>
		<edge from-layer="1337" from-port="3" to-layer="1339" to-port="0"/>
		<edge from-layer="1338" from-port="1" to-layer="1339" to-port="1"/>
		<edge from-layer="1339" from-port="2" to-layer="1341" to-port="0"/>
		<edge from-layer="1340" from-port="1" to-layer="1341" to-port="1"/>
		<edge from-layer="1291" from-port="1" to-layer="1342" to-port="0"/>
		<edge from-layer="1341" from-port="2" to-layer="1344" to-port="0"/>
		<edge from-layer="1342" from-port="1" to-layer="1344" to-port="1"/>
		<edge from-layer="1343" from-port="1" to-layer="1344" to-port="2"/>
		<edge from-layer="1344" from-port="3" to-layer="1347" to-port="0"/>
		<edge from-layer="1345" from-port="1" to-layer="1347" to-port="1"/>
		<edge from-layer="1346" from-port="1" to-layer="1347" to-port="2"/>
		<edge from-layer="1297" from-port="3" to-layer="1348" to-port="0"/>
		<edge from-layer="1347" from-port="3" to-layer="1348" to-port="1"/>
		<edge from-layer="1348" from-port="2" to-layer="1349" to-port="0"/>
		<edge from-layer="1349" from-port="1" to-layer="1351" to-port="0"/>
		<edge from-layer="1350" from-port="1" to-layer="1351" to-port="1"/>
		<edge from-layer="1294" from-port="3" to-layer="1354" to-port="0"/>
		<edge from-layer="1352" from-port="1" to-layer="1354" to-port="1"/>
		<edge from-layer="1353" from-port="1" to-layer="1354" to-port="2"/>
		<edge from-layer="1344" from-port="3" to-layer="1357" to-port="0"/>
		<edge from-layer="1355" from-port="1" to-layer="1357" to-port="1"/>
		<edge from-layer="1356" from-port="1" to-layer="1357" to-port="2"/>
		<edge from-layer="1354" from-port="3" to-layer="1358" to-port="0"/>
		<edge from-layer="1357" from-port="3" to-layer="1358" to-port="1"/>
		<edge from-layer="1358" from-port="2" to-layer="1359" to-port="0"/>
		<edge from-layer="1359" from-port="1" to-layer="1361" to-port="0"/>
		<edge from-layer="1360" from-port="1" to-layer="1361" to-port="1"/>
		<edge from-layer="1294" from-port="3" to-layer="1364" to-port="0"/>
		<edge from-layer="1362" from-port="1" to-layer="1364" to-port="1"/>
		<edge from-layer="1363" from-port="1" to-layer="1364" to-port="2"/>
		<edge from-layer="1344" from-port="3" to-layer="1367" to-port="0"/>
		<edge from-layer="1365" from-port="1" to-layer="1367" to-port="1"/>
		<edge from-layer="1366" from-port="1" to-layer="1367" to-port="2"/>
		<edge from-layer="1364" from-port="3" to-layer="1368" to-port="0"/>
		<edge from-layer="1367" from-port="3" to-layer="1368" to-port="1"/>
		<edge from-layer="1368" from-port="2" to-layer="1369" to-port="0"/>
		<edge from-layer="1369" from-port="1" to-layer="1371" to-port="0"/>
		<edge from-layer="1370" from-port="1" to-layer="1371" to-port="1"/>
		<edge from-layer="1294" from-port="3" to-layer="1374" to-port="0"/>
		<edge from-layer="1372" from-port="1" to-layer="1374" to-port="1"/>
		<edge from-layer="1373" from-port="1" to-layer="1374" to-port="2"/>
		<edge from-layer="1344" from-port="3" to-layer="1377" to-port="0"/>
		<edge from-layer="1375" from-port="1" to-layer="1377" to-port="1"/>
		<edge from-layer="1376" from-port="1" to-layer="1377" to-port="2"/>
		<edge from-layer="1374" from-port="3" to-layer="1378" to-port="0"/>
		<edge from-layer="1377" from-port="3" to-layer="1378" to-port="1"/>
		<edge from-layer="1378" from-port="2" to-layer="1379" to-port="0"/>
		<edge from-layer="1379" from-port="1" to-layer="1381" to-port="0"/>
		<edge from-layer="1380" from-port="1" to-layer="1381" to-port="1"/>
		<edge from-layer="1351" from-port="2" to-layer="1382" to-port="0"/>
		<edge from-layer="1361" from-port="2" to-layer="1382" to-port="1"/>
		<edge from-layer="1371" from-port="2" to-layer="1382" to-port="2"/>
		<edge from-layer="1381" from-port="2" to-layer="1382" to-port="3"/>
		<edge from-layer="672" from-port="2" to-layer="1384" to-port="0"/>
		<edge from-layer="1384" from-port="1" to-layer="1387" to-port="0"/>
		<edge from-layer="1385" from-port="1" to-layer="1387" to-port="1"/>
		<edge from-layer="1386" from-port="1" to-layer="1387" to-port="2"/>
		<edge from-layer="1387" from-port="3" to-layer="1389" to-port="0"/>
		<edge from-layer="1388" from-port="1" to-layer="1389" to-port="1"/>
		<edge from-layer="1389" from-port="2" to-layer="1391" to-port="0"/>
		<edge from-layer="1390" from-port="1" to-layer="1391" to-port="1"/>
		<edge from-layer="1391" from-port="2" to-layer="1393" to-port="0"/>
		<edge from-layer="1392" from-port="1" to-layer="1393" to-port="1"/>
		<edge from-layer="1393" from-port="2" to-layer="1395" to-port="0"/>
		<edge from-layer="1394" from-port="1" to-layer="1395" to-port="1"/>
		<edge from-layer="1383" from-port="1" to-layer="1396" to-port="0"/>
		<edge from-layer="1395" from-port="2" to-layer="1396" to-port="1"/>
		<edge from-layer="1396" from-port="2" to-layer="1397" to-port="0"/>
		<edge from-layer="1397" from-port="1" to-layer="1399" to-port="0"/>
		<edge from-layer="1398" from-port="1" to-layer="1399" to-port="1"/>
		<edge from-layer="1399" from-port="2" to-layer="1401" to-port="0"/>
		<edge from-layer="1400" from-port="1" to-layer="1401" to-port="1"/>
		<edge from-layer="1401" from-port="2" to-layer="1403" to-port="0"/>
		<edge from-layer="1402" from-port="1" to-layer="1403" to-port="1"/>
		<edge from-layer="1403" from-port="2" to-layer="1405" to-port="0"/>
		<edge from-layer="1404" from-port="1" to-layer="1405" to-port="1"/>
		<edge from-layer="1405" from-port="2" to-layer="1406" to-port="0"/>
		<edge from-layer="1406" from-port="1" to-layer="1408" to-port="0"/>
		<edge from-layer="1407" from-port="1" to-layer="1408" to-port="1"/>
		<edge from-layer="1408" from-port="2" to-layer="1410" to-port="0"/>
		<edge from-layer="1409" from-port="1" to-layer="1411" to-port="0"/>
		<edge from-layer="1410" from-port="1" to-layer="1411" to-port="1"/>
		<edge from-layer="1408" from-port="2" to-layer="1412" to-port="0"/>
		<edge from-layer="1411" from-port="2" to-layer="1412" to-port="1"/>
		<edge from-layer="672" from-port="2" to-layer="1414" to-port="0"/>
		<edge from-layer="1414" from-port="1" to-layer="1417" to-port="0"/>
		<edge from-layer="1415" from-port="1" to-layer="1417" to-port="1"/>
		<edge from-layer="1416" from-port="1" to-layer="1417" to-port="2"/>
		<edge from-layer="1417" from-port="3" to-layer="1419" to-port="0"/>
		<edge from-layer="1418" from-port="1" to-layer="1419" to-port="1"/>
		<edge from-layer="1419" from-port="2" to-layer="1421" to-port="0"/>
		<edge from-layer="1420" from-port="1" to-layer="1421" to-port="1"/>
		<edge from-layer="1421" from-port="2" to-layer="1423" to-port="0"/>
		<edge from-layer="1422" from-port="1" to-layer="1423" to-port="1"/>
		<edge from-layer="1423" from-port="2" to-layer="1425" to-port="0"/>
		<edge from-layer="1424" from-port="1" to-layer="1425" to-port="1"/>
		<edge from-layer="1413" from-port="1" to-layer="1426" to-port="0"/>
		<edge from-layer="1425" from-port="2" to-layer="1426" to-port="1"/>
		<edge from-layer="1426" from-port="2" to-layer="1427" to-port="0"/>
		<edge from-layer="1427" from-port="1" to-layer="1429" to-port="0"/>
		<edge from-layer="1428" from-port="1" to-layer="1429" to-port="1"/>
		<edge from-layer="1429" from-port="2" to-layer="1431" to-port="0"/>
		<edge from-layer="1430" from-port="1" to-layer="1431" to-port="1"/>
		<edge from-layer="1431" from-port="2" to-layer="1433" to-port="0"/>
		<edge from-layer="1432" from-port="1" to-layer="1433" to-port="1"/>
		<edge from-layer="1433" from-port="2" to-layer="1435" to-port="0"/>
		<edge from-layer="1434" from-port="1" to-layer="1435" to-port="1"/>
		<edge from-layer="1435" from-port="2" to-layer="1436" to-port="0"/>
		<edge from-layer="1436" from-port="1" to-layer="1438" to-port="0"/>
		<edge from-layer="1437" from-port="1" to-layer="1438" to-port="1"/>
		<edge from-layer="1438" from-port="2" to-layer="1439" to-port="0"/>
		<edge from-layer="1439" from-port="1" to-layer="1440" to-port="0"/>
		<edge from-layer="1410" from-port="1" to-layer="1440" to-port="1"/>
		<edge from-layer="1412" from-port="2" to-layer="1441" to-port="0"/>
		<edge from-layer="1440" from-port="2" to-layer="1441" to-port="1"/>
		<edge from-layer="1441" from-port="2" to-layer="1443" to-port="0"/>
		<edge from-layer="1442" from-port="1" to-layer="1443" to-port="1"/>
		<edge from-layer="1443" from-port="2" to-layer="1445" to-port="0"/>
		<edge from-layer="1444" from-port="1" to-layer="1445" to-port="1"/>
		<edge from-layer="1439" from-port="1" to-layer="1447" to-port="0"/>
		<edge from-layer="1446" from-port="1" to-layer="1447" to-port="1"/>
		<edge from-layer="1438" from-port="2" to-layer="1448" to-port="0"/>
		<edge from-layer="1447" from-port="2" to-layer="1448" to-port="1"/>
		<edge from-layer="1448" from-port="2" to-layer="1449" to-port="0"/>
		<edge from-layer="1440" from-port="2" to-layer="1449" to-port="1"/>
		<edge from-layer="1449" from-port="2" to-layer="1451" to-port="0"/>
		<edge from-layer="1450" from-port="1" to-layer="1451" to-port="1"/>
		<edge from-layer="1451" from-port="2" to-layer="1453" to-port="0"/>
		<edge from-layer="1452" from-port="1" to-layer="1453" to-port="1"/>
		<edge from-layer="1445" from-port="2" to-layer="1454" to-port="0"/>
		<edge from-layer="1453" from-port="2" to-layer="1454" to-port="1"/>
		<edge from-layer="1454" from-port="2" to-layer="1456" to-port="0"/>
		<edge from-layer="1455" from-port="1" to-layer="1456" to-port="1"/>
		<edge from-layer="717" from-port="3" to-layer="1457" to-port="0"/>
		<edge from-layer="1457" from-port="1" to-layer="1458" to-port="0"/>
		<edge from-layer="1456" from-port="2" to-layer="1460" to-port="0"/>
		<edge from-layer="1458" from-port="1" to-layer="1460" to-port="1"/>
		<edge from-layer="1459" from-port="1" to-layer="1460" to-port="2"/>
		<edge from-layer="1460" from-port="3" to-layer="1463" to-port="0"/>
		<edge from-layer="1461" from-port="1" to-layer="1463" to-port="1"/>
		<edge from-layer="1462" from-port="1" to-layer="1463" to-port="2"/>
		<edge from-layer="636" from-port="2" to-layer="1465" to-port="0"/>
		<edge from-layer="1464" from-port="1" to-layer="1465" to-port="1"/>
		<edge from-layer="1465" from-port="2" to-layer="1466" to-port="0"/>
		<edge from-layer="1466" from-port="1" to-layer="1468" to-port="0"/>
		<edge from-layer="1467" from-port="1" to-layer="1468" to-port="1"/>
		<edge from-layer="1468" from-port="2" to-layer="1470" to-port="0"/>
		<edge from-layer="1469" from-port="1" to-layer="1470" to-port="1"/>
		<edge from-layer="1470" from-port="2" to-layer="1471" to-port="0"/>
		<edge from-layer="1471" from-port="1" to-layer="1473" to-port="0"/>
		<edge from-layer="1472" from-port="1" to-layer="1473" to-port="1"/>
		<edge from-layer="1473" from-port="2" to-layer="1474" to-port="0"/>
		<edge from-layer="1474" from-port="1" to-layer="1476" to-port="0"/>
		<edge from-layer="1475" from-port="1" to-layer="1476" to-port="1"/>
		<edge from-layer="1476" from-port="2" to-layer="1478" to-port="0"/>
		<edge from-layer="1477" from-port="1" to-layer="1478" to-port="1"/>
		<edge from-layer="1478" from-port="2" to-layer="1479" to-port="0"/>
		<edge from-layer="1479" from-port="1" to-layer="1481" to-port="0"/>
		<edge from-layer="1480" from-port="1" to-layer="1481" to-port="1"/>
		<edge from-layer="1481" from-port="2" to-layer="1482" to-port="0"/>
		<edge from-layer="1482" from-port="1" to-layer="1484" to-port="0"/>
		<edge from-layer="1483" from-port="1" to-layer="1484" to-port="1"/>
		<edge from-layer="1484" from-port="2" to-layer="1486" to-port="0"/>
		<edge from-layer="1485" from-port="1" to-layer="1486" to-port="1"/>
		<edge from-layer="1486" from-port="2" to-layer="1487" to-port="0"/>
		<edge from-layer="1487" from-port="1" to-layer="1489" to-port="0"/>
		<edge from-layer="1488" from-port="1" to-layer="1489" to-port="1"/>
		<edge from-layer="1489" from-port="2" to-layer="1490" to-port="0"/>
		<edge from-layer="1490" from-port="1" to-layer="1492" to-port="0"/>
		<edge from-layer="1491" from-port="1" to-layer="1492" to-port="1"/>
		<edge from-layer="1492" from-port="2" to-layer="1494" to-port="0"/>
		<edge from-layer="1493" from-port="1" to-layer="1494" to-port="1"/>
		<edge from-layer="1494" from-port="2" to-layer="1495" to-port="0"/>
		<edge from-layer="1495" from-port="1" to-layer="1497" to-port="0"/>
		<edge from-layer="1496" from-port="1" to-layer="1497" to-port="1"/>
		<edge from-layer="1497" from-port="2" to-layer="1499" to-port="0"/>
		<edge from-layer="1498" from-port="1" to-layer="1499" to-port="1"/>
		<edge from-layer="1499" from-port="2" to-layer="1500" to-port="0"/>
		<edge from-layer="1500" from-port="1" to-layer="1503" to-port="0"/>
		<edge from-layer="1501" from-port="1" to-layer="1503" to-port="1"/>
		<edge from-layer="1502" from-port="1" to-layer="1503" to-port="2"/>
		<edge from-layer="1503" from-port="3" to-layer="1505" to-port="0"/>
		<edge from-layer="1504" from-port="1" to-layer="1505" to-port="1"/>
		<edge from-layer="1505" from-port="2" to-layer="1507" to-port="0"/>
		<edge from-layer="1506" from-port="1" to-layer="1507" to-port="1"/>
		<edge from-layer="1457" from-port="1" to-layer="1508" to-port="0"/>
		<edge from-layer="1507" from-port="2" to-layer="1510" to-port="0"/>
		<edge from-layer="1508" from-port="1" to-layer="1510" to-port="1"/>
		<edge from-layer="1509" from-port="1" to-layer="1510" to-port="2"/>
		<edge from-layer="1510" from-port="3" to-layer="1513" to-port="0"/>
		<edge from-layer="1511" from-port="1" to-layer="1513" to-port="1"/>
		<edge from-layer="1512" from-port="1" to-layer="1513" to-port="2"/>
		<edge from-layer="1463" from-port="3" to-layer="1514" to-port="0"/>
		<edge from-layer="1513" from-port="3" to-layer="1514" to-port="1"/>
		<edge from-layer="1514" from-port="2" to-layer="1515" to-port="0"/>
		<edge from-layer="1515" from-port="1" to-layer="1517" to-port="0"/>
		<edge from-layer="1516" from-port="1" to-layer="1517" to-port="1"/>
		<edge from-layer="1460" from-port="3" to-layer="1520" to-port="0"/>
		<edge from-layer="1518" from-port="1" to-layer="1520" to-port="1"/>
		<edge from-layer="1519" from-port="1" to-layer="1520" to-port="2"/>
		<edge from-layer="1510" from-port="3" to-layer="1523" to-port="0"/>
		<edge from-layer="1521" from-port="1" to-layer="1523" to-port="1"/>
		<edge from-layer="1522" from-port="1" to-layer="1523" to-port="2"/>
		<edge from-layer="1520" from-port="3" to-layer="1524" to-port="0"/>
		<edge from-layer="1523" from-port="3" to-layer="1524" to-port="1"/>
		<edge from-layer="1524" from-port="2" to-layer="1525" to-port="0"/>
		<edge from-layer="1525" from-port="1" to-layer="1527" to-port="0"/>
		<edge from-layer="1526" from-port="1" to-layer="1527" to-port="1"/>
		<edge from-layer="1460" from-port="3" to-layer="1530" to-port="0"/>
		<edge from-layer="1528" from-port="1" to-layer="1530" to-port="1"/>
		<edge from-layer="1529" from-port="1" to-layer="1530" to-port="2"/>
		<edge from-layer="1510" from-port="3" to-layer="1533" to-port="0"/>
		<edge from-layer="1531" from-port="1" to-layer="1533" to-port="1"/>
		<edge from-layer="1532" from-port="1" to-layer="1533" to-port="2"/>
		<edge from-layer="1530" from-port="3" to-layer="1534" to-port="0"/>
		<edge from-layer="1533" from-port="3" to-layer="1534" to-port="1"/>
		<edge from-layer="1534" from-port="2" to-layer="1535" to-port="0"/>
		<edge from-layer="1535" from-port="1" to-layer="1537" to-port="0"/>
		<edge from-layer="1536" from-port="1" to-layer="1537" to-port="1"/>
		<edge from-layer="1460" from-port="3" to-layer="1540" to-port="0"/>
		<edge from-layer="1538" from-port="1" to-layer="1540" to-port="1"/>
		<edge from-layer="1539" from-port="1" to-layer="1540" to-port="2"/>
		<edge from-layer="1510" from-port="3" to-layer="1543" to-port="0"/>
		<edge from-layer="1541" from-port="1" to-layer="1543" to-port="1"/>
		<edge from-layer="1542" from-port="1" to-layer="1543" to-port="2"/>
		<edge from-layer="1540" from-port="3" to-layer="1544" to-port="0"/>
		<edge from-layer="1543" from-port="3" to-layer="1544" to-port="1"/>
		<edge from-layer="1544" from-port="2" to-layer="1545" to-port="0"/>
		<edge from-layer="1545" from-port="1" to-layer="1547" to-port="0"/>
		<edge from-layer="1546" from-port="1" to-layer="1547" to-port="1"/>
		<edge from-layer="1517" from-port="2" to-layer="1548" to-port="0"/>
		<edge from-layer="1527" from-port="2" to-layer="1548" to-port="1"/>
		<edge from-layer="1537" from-port="2" to-layer="1548" to-port="2"/>
		<edge from-layer="1547" from-port="2" to-layer="1548" to-port="3"/>
		<edge from-layer="884" from-port="4" to-layer="1549" to-port="0"/>
		<edge from-layer="1050" from-port="4" to-layer="1549" to-port="1"/>
		<edge from-layer="1216" from-port="4" to-layer="1549" to-port="2"/>
		<edge from-layer="1382" from-port="4" to-layer="1549" to-port="3"/>
		<edge from-layer="1548" from-port="4" to-layer="1549" to-port="4"/>
		<edge from-layer="1549" from-port="5" to-layer="1551" to-port="0"/>
		<edge from-layer="1550" from-port="1" to-layer="1551" to-port="1"/>
		<edge from-layer="1551" from-port="2" to-layer="1553" to-port="0"/>
		<edge from-layer="1552" from-port="1" to-layer="1553" to-port="1"/>
		<edge from-layer="1553" from-port="2" to-layer="1555" to-port="0"/>
		<edge from-layer="1554" from-port="1" to-layer="1555" to-port="1"/>
		<edge from-layer="793" from-port="1" to-layer="1556" to-port="0"/>
		<edge from-layer="335" from-port="1" to-layer="1558" to-port="0"/>
		<edge from-layer="1556" from-port="1" to-layer="1558" to-port="1"/>
		<edge from-layer="1557" from-port="1" to-layer="1558" to-port="2"/>
		<edge from-layer="959" from-port="1" to-layer="1559" to-port="0"/>
		<edge from-layer="421" from-port="1" to-layer="1561" to-port="0"/>
		<edge from-layer="1559" from-port="1" to-layer="1561" to-port="1"/>
		<edge from-layer="1560" from-port="1" to-layer="1561" to-port="2"/>
		<edge from-layer="1125" from-port="1" to-layer="1562" to-port="0"/>
		<edge from-layer="507" from-port="1" to-layer="1564" to-port="0"/>
		<edge from-layer="1562" from-port="1" to-layer="1564" to-port="1"/>
		<edge from-layer="1563" from-port="1" to-layer="1564" to-port="2"/>
		<edge from-layer="1291" from-port="1" to-layer="1565" to-port="0"/>
		<edge from-layer="593" from-port="1" to-layer="1567" to-port="0"/>
		<edge from-layer="1565" from-port="1" to-layer="1567" to-port="1"/>
		<edge from-layer="1566" from-port="1" to-layer="1567" to-port="2"/>
		<edge from-layer="1457" from-port="1" to-layer="1568" to-port="0"/>
		<edge from-layer="680" from-port="1" to-layer="1570" to-port="0"/>
		<edge from-layer="1568" from-port="1" to-layer="1570" to-port="1"/>
		<edge from-layer="1569" from-port="1" to-layer="1570" to-port="2"/>
		<edge from-layer="1558" from-port="3" to-layer="1571" to-port="0"/>
		<edge from-layer="1561" from-port="3" to-layer="1571" to-port="1"/>
		<edge from-layer="1564" from-port="3" to-layer="1571" to-port="2"/>
		<edge from-layer="1567" from-port="3" to-layer="1571" to-port="3"/>
		<edge from-layer="1570" from-port="3" to-layer="1571" to-port="4"/>
		<edge from-layer="793" from-port="1" to-layer="1572" to-port="0"/>
		<edge from-layer="347" from-port="1" to-layer="1574" to-port="0"/>
		<edge from-layer="1572" from-port="1" to-layer="1574" to-port="1"/>
		<edge from-layer="1573" from-port="1" to-layer="1574" to-port="2"/>
		<edge from-layer="959" from-port="1" to-layer="1575" to-port="0"/>
		<edge from-layer="433" from-port="1" to-layer="1577" to-port="0"/>
		<edge from-layer="1575" from-port="1" to-layer="1577" to-port="1"/>
		<edge from-layer="1576" from-port="1" to-layer="1577" to-port="2"/>
		<edge from-layer="1125" from-port="1" to-layer="1578" to-port="0"/>
		<edge from-layer="519" from-port="1" to-layer="1580" to-port="0"/>
		<edge from-layer="1578" from-port="1" to-layer="1580" to-port="1"/>
		<edge from-layer="1579" from-port="1" to-layer="1580" to-port="2"/>
		<edge from-layer="1291" from-port="1" to-layer="1581" to-port="0"/>
		<edge from-layer="605" from-port="1" to-layer="1583" to-port="0"/>
		<edge from-layer="1581" from-port="1" to-layer="1583" to-port="1"/>
		<edge from-layer="1582" from-port="1" to-layer="1583" to-port="2"/>
		<edge from-layer="1457" from-port="1" to-layer="1584" to-port="0"/>
		<edge from-layer="692" from-port="1" to-layer="1586" to-port="0"/>
		<edge from-layer="1584" from-port="1" to-layer="1586" to-port="1"/>
		<edge from-layer="1585" from-port="1" to-layer="1586" to-port="2"/>
		<edge from-layer="1574" from-port="3" to-layer="1587" to-port="0"/>
		<edge from-layer="1577" from-port="3" to-layer="1587" to-port="1"/>
		<edge from-layer="1580" from-port="3" to-layer="1587" to-port="2"/>
		<edge from-layer="1583" from-port="3" to-layer="1587" to-port="3"/>
		<edge from-layer="1586" from-port="3" to-layer="1587" to-port="4"/>
		<edge from-layer="1587" from-port="5" to-layer="1588" to-port="0"/>
		<edge from-layer="1588" from-port="1" to-layer="1591" to-port="0"/>
		<edge from-layer="1589" from-port="1" to-layer="1591" to-port="1"/>
		<edge from-layer="1590" from-port="1" to-layer="1591" to-port="2"/>
		<edge from-layer="1591" from-port="3" to-layer="1593" to-port="0"/>
		<edge from-layer="1592" from-port="1" to-layer="1593" to-port="1"/>
		<edge from-layer="1593" from-port="2" to-layer="1595" to-port="0"/>
		<edge from-layer="1594" from-port="1" to-layer="1595" to-port="1"/>
		<edge from-layer="1587" from-port="5" to-layer="1596" to-port="0"/>
		<edge from-layer="1595" from-port="2" to-layer="1596" to-port="1"/>
		<edge from-layer="1571" from-port="5" to-layer="1597" to-port="0"/>
		<edge from-layer="1596" from-port="2" to-layer="1598" to-port="0"/>
		<edge from-layer="1597" from-port="1" to-layer="1598" to-port="1"/>
		<edge from-layer="1571" from-port="5" to-layer="1599" to-port="0"/>
		<edge from-layer="1598" from-port="2" to-layer="1599" to-port="1"/>
		<edge from-layer="1599" from-port="2" to-layer="1601" to-port="0"/>
		<edge from-layer="1600" from-port="1" to-layer="1601" to-port="1"/>
		<edge from-layer="1553" from-port="2" to-layer="1602" to-port="0"/>
		<edge from-layer="1602" from-port="1" to-layer="1606" to-port="0"/>
		<edge from-layer="1603" from-port="1" to-layer="1606" to-port="1"/>
		<edge from-layer="1604" from-port="1" to-layer="1606" to-port="2"/>
		<edge from-layer="1605" from-port="1" to-layer="1606" to-port="3"/>
		<edge from-layer="1553" from-port="2" to-layer="1608" to-port="0"/>
		<edge from-layer="1608" from-port="1" to-layer="1612" to-port="0"/>
		<edge from-layer="1609" from-port="1" to-layer="1612" to-port="1"/>
		<edge from-layer="1610" from-port="1" to-layer="1612" to-port="2"/>
		<edge from-layer="1611" from-port="1" to-layer="1612" to-port="3"/>
		<edge from-layer="1606" from-port="4" to-layer="1613" to-port="0"/>
		<edge from-layer="1607" from-port="1" to-layer="1613" to-port="1"/>
		<edge from-layer="1612" from-port="4" to-layer="1613" to-port="2"/>
		<edge from-layer="1601" from-port="2" to-layer="1614" to-port="0"/>
		<edge from-layer="1613" from-port="3" to-layer="1614" to-port="1"/>
		<edge from-layer="1553" from-port="2" to-layer="1618" to-port="0"/>
		<edge from-layer="1614" from-port="2" to-layer="1618" to-port="1"/>
		<edge from-layer="1615" from-port="1" to-layer="1618" to-port="2"/>
		<edge from-layer="1616" from-port="1" to-layer="1618" to-port="3"/>
		<edge from-layer="1617" from-port="1" to-layer="1618" to-port="4"/>
		<edge from-layer="1618" from-port="5" to-layer="1621" to-port="0"/>
		<edge from-layer="1619" from-port="1" to-layer="1621" to-port="1"/>
		<edge from-layer="1620" from-port="1" to-layer="1621" to-port="2"/>
		<edge from-layer="1621" from-port="3" to-layer="1623" to-port="0"/>
		<edge from-layer="1622" from-port="1" to-layer="1623" to-port="1"/>
		<edge from-layer="1623" from-port="2" to-layer="1624" to-port="0"/>
		<edge from-layer="1621" from-port="5" to-layer="1624" to-port="1"/>
		<edge from-layer="1624" from-port="2" to-layer="1625" to-port="0"/>
		<edge from-layer="1555" from-port="2" to-layer="1627" to-port="0"/>
		<edge from-layer="1625" from-port="1" to-layer="1627" to-port="1"/>
		<edge from-layer="1626" from-port="1" to-layer="1627" to-port="2"/>
		<edge from-layer="1627" from-port="3" to-layer="1629" to-port="0"/>
		<edge from-layer="1628" from-port="1" to-layer="1629" to-port="1"/>
		<edge from-layer="1614" from-port="2" to-layer="1631" to-port="0"/>
		<edge from-layer="1630" from-port="1" to-layer="1631" to-port="1"/>
		<edge from-layer="1621" from-port="3" to-layer="1633" to-port="0"/>
		<edge from-layer="1632" from-port="1" to-layer="1633" to-port="1"/>
		<edge from-layer="1633" from-port="2" to-layer="1634" to-port="0"/>
		<edge from-layer="1621" from-port="4" to-layer="1634" to-port="1"/>
		<edge from-layer="1634" from-port="2" to-layer="1635" to-port="0"/>
		<edge from-layer="1622" from-port="1" to-layer="1635" to-port="1"/>
		<edge from-layer="1635" from-port="2" to-layer="1636" to-port="0"/>
		<edge from-layer="1621" from-port="5" to-layer="1636" to-port="1"/>
		<edge from-layer="1636" from-port="2" to-layer="1637" to-port="0"/>
		<edge from-layer="1631" from-port="2" to-layer="1639" to-port="0"/>
		<edge from-layer="1637" from-port="1" to-layer="1639" to-port="1"/>
		<edge from-layer="1638" from-port="1" to-layer="1639" to-port="2"/>
		<edge from-layer="1639" from-port="3" to-layer="1641" to-port="0"/>
		<edge from-layer="1640" from-port="1" to-layer="1641" to-port="1"/>
		<edge from-layer="1621" from-port="4" to-layer="1642" to-port="0"/>
		<edge from-layer="1621" from-port="3" to-layer="1642" to-port="1"/>
		<edge from-layer="1642" from-port="2" to-layer="1643" to-port="0"/>
		<edge from-layer="1643" from-port="1" to-layer="1645" to-port="0"/>
		<edge from-layer="1644" from-port="1" to-layer="1645" to-port="1"/>
		<edge from-layer="1629" from-port="2" to-layer="1646" to-port="0"/>
		<edge from-layer="1641" from-port="2" to-layer="1646" to-port="1"/>
		<edge from-layer="1645" from-port="2" to-layer="1646" to-port="2"/>
		<edge from-layer="1646" from-port="3" to-layer="1649" to-port="0"/>
		<edge from-layer="1647" from-port="1" to-layer="1649" to-port="1"/>
		<edge from-layer="1648" from-port="1" to-layer="1649" to-port="2"/>
		<edge from-layer="1649" from-port="3" to-layer="1651" to-port="0"/>
		<edge from-layer="1650" from-port="1" to-layer="1651" to-port="1"/>
		<edge from-layer="1651" from-port="2" to-layer="1653" to-port="0"/>
		<edge from-layer="1653" from-port="1" to-layer="1656" to-port="0"/>
		<edge from-layer="1654" from-port="1" to-layer="1656" to-port="1"/>
		<edge from-layer="1655" from-port="1" to-layer="1656" to-port="2"/>
		<edge from-layer="1656" from-port="3" to-layer="1658" to-port="0"/>
		<edge from-layer="1657" from-port="1" to-layer="1658" to-port="1"/>
		<edge from-layer="1652" from-port="1" to-layer="1659" to-port="0"/>
		<edge from-layer="1658" from-port="2" to-layer="1659" to-port="1"/>
		<edge from-layer="1659" from-port="2" to-layer="1660" to-port="0"/>
		<edge from-layer="1660" from-port="1" to-layer="1662" to-port="0"/>
		<edge from-layer="1661" from-port="1" to-layer="1662" to-port="1"/>
		<edge from-layer="1662" from-port="2" to-layer="1663" to-port="0"/>
		<edge from-layer="1663" from-port="1" to-layer="1665" to-port="0"/>
		<edge from-layer="1664" from-port="1" to-layer="1665" to-port="1"/>
		<edge from-layer="1665" from-port="2" to-layer="1667" to-port="0"/>
		<edge from-layer="1666" from-port="1" to-layer="1667" to-port="1"/>
		<edge from-layer="1667" from-port="2" to-layer="1669" to-port="0"/>
		<edge from-layer="1668" from-port="1" to-layer="1669" to-port="1"/>
		<edge from-layer="1669" from-port="2" to-layer="1670" to-port="0"/>
		<edge from-layer="1651" from-port="2" to-layer="1671" to-port="0"/>
		<edge from-layer="1670" from-port="1" to-layer="1671" to-port="1"/>
		<edge from-layer="1671" from-port="2" to-layer="1672" to-port="0"/>
		<edge from-layer="1671" from-port="3" to-layer="1673" to-port="0"/>
		<edge from-layer="1673" from-port="1" to-layer="1674" to-port="0"/>
		<edge from-layer="1646" from-port="3" to-layer="1676" to-port="0"/>
		<edge from-layer="1674" from-port="1" to-layer="1676" to-port="1"/>
		<edge from-layer="1675" from-port="1" to-layer="1676" to-port="2"/>
		<edge from-layer="1676" from-port="3" to-layer="1680" to-port="0"/>
		<edge from-layer="1677" from-port="1" to-layer="1680" to-port="1"/>
		<edge from-layer="1678" from-port="1" to-layer="1680" to-port="2"/>
		<edge from-layer="1679" from-port="1" to-layer="1680" to-port="3"/>
		<edge from-layer="1680" from-port="4" to-layer="1681" to-port="0"/>
		<edge from-layer="1676" from-port="3" to-layer="1684" to-port="0"/>
		<edge from-layer="1682" from-port="1" to-layer="1684" to-port="1"/>
		<edge from-layer="1683" from-port="1" to-layer="1684" to-port="2"/>
		<edge from-layer="1684" from-port="3" to-layer="1685" to-port="0"/>
		<edge from-layer="1685" from-port="1" to-layer="1687" to-port="0"/>
		<edge from-layer="1686" from-port="1" to-layer="1687" to-port="1"/>
		<edge from-layer="1687" from-port="2" to-layer="1688" to-port="0"/>
	</edges>
	<meta_data>
		<MO_version value="2021.1.0-1223-31b3e356abc-releases/2021/1"/>
		<cli_parameters>
			<caffe_parser_path value="DIR"/>
			<data_type value="FP16"/>
			<disable_nhwc_to_nchw value="False"/>
			<disable_omitting_optional value="False"/>
			<disable_resnet_optimization value="False"/>
			<disable_weights_compression value="False"/>
			<enable_concat_optimization value="False"/>
			<enable_flattening_nested_params value="False"/>
			<enable_ssd_gluoncv value="False"/>
			<extensions value="DIR"/>
			<framework value="onnx"/>
			<freeze_placeholder_with_value value="{}"/>
			<generate_deprecated_IR_V7 value="False"/>
			<input value="image"/>
			<input_model value="DIR/model.onnx"/>
			<input_model_is_text value="False"/>
			<input_shape value="[1,3,704,704]"/>
			<k value="DIR/CustomLayersMapping.xml"/>
			<keep_shape_ops value="True"/>
			<legacy_mxnet_model value="False"/>
			<log_level value="ERROR"/>
			<mean_scale_values value="{'image': {'mean': array([0., 0., 0.]), 'scale': array([255., 255., 255.])}}"/>
			<mean_values value="image[0.0,0.0,0.0]"/>
			<model_name value="horizontal-text-detection-0001"/>
			<output value="['boxes', 'labels']"/>
			<output_dir value="DIR"/>
			<placeholder_data_types value="{}"/>
			<placeholder_shapes value="{'image': array([  1,   3, 704, 704])}"/>
			<progress value="False"/>
			<remove_memory value="False"/>
			<remove_output_softmax value="False"/>
			<reverse_input_channels value="True"/>
			<save_params_from_nd value="False"/>
			<scale_values value="image[255.0,255.0,255.0]"/>
			<silent value="False"/>
			<static_shape value="False"/>
			<stream_output value="False"/>
			<unset unset_cli_parameters="batch, counts, disable_fusing, disable_gfusing, finegrain_fusing, input_checkpoint, input_meta_graph, input_proto, input_symbol, mean_file, mean_file_offsets, move_to_preprocess, nd_prefix_name, pretrained_model_name, saved_model_dir, saved_model_tags, scale, tensorboard_logdir, tensorflow_custom_layer_libraries, tensorflow_custom_operations_config_update, tensorflow_object_detection_api_pipeline_config, tensorflow_use_custom_operations_config, transformations_config"/>
		</cli_parameters>
	</meta_data>
</net>
